<?xml version="1.0"?>
<net name="main_graph" version="11">
	<layers>
		<layer id="0" name="input" type="Parameter" version="opset1">
			<data shape="1,60,42,2" element_type="f32" />
			<output>
				<port id="0" precision="FP32" names="input">
					<dim>1</dim>
					<dim>60</dim>
					<dim>42</dim>
					<dim>2</dim>
				</port>
			</output>
		</layer>
		<layer id="1" name="onnx::Expand_945_compressed" type="Const" version="opset1">
			<data element_type="f16" shape="1, 61, 42" offset="0" size="5124" />
			<output>
				<port id="0" precision="FP16">
					<dim>1</dim>
					<dim>61</dim>
					<dim>42</dim>
				</port>
			</output>
		</layer>
		<layer id="2" name="onnx::Expand_945" type="Convert" version="opset1">
			<data destination_type="f32" />
			<rt_info>
				<attribute name="decompression" version="0" />
			</rt_info>
			<input>
				<port id="0" precision="FP16">
					<dim>1</dim>
					<dim>61</dim>
					<dim>42</dim>
				</port>
			</input>
			<output>
				<port id="1" precision="FP32" names="onnx::Expand_945">
					<dim>1</dim>
					<dim>61</dim>
					<dim>42</dim>
				</port>
			</output>
		</layer>
		<layer id="3" name="/Constant_4" type="Const" version="opset1">
			<data element_type="i64" shape="1" offset="5124" size="8" />
			<output>
				<port id="0" precision="I64" names="/Constant_4_output_0">
					<dim>1</dim>
				</port>
			</output>
		</layer>
		<layer id="4" name="/Constant_5" type="Const" version="opset1">
			<data element_type="i64" shape="1" offset="5132" size="8" />
			<output>
				<port id="0" precision="I64" names="/Constant_5_output_0">
					<dim>1</dim>
				</port>
			</output>
		</layer>
		<layer id="5" name="/Constant_6" type="Const" version="opset1">
			<data element_type="i64" shape="1" offset="5140" size="8" />
			<output>
				<port id="0" precision="I64" names="/Constant_6_output_0">
					<dim>1</dim>
				</port>
			</output>
		</layer>
		<layer id="6" name="/Constant_3" type="Const" version="opset1">
			<data element_type="i64" shape="1" offset="5148" size="8" />
			<output>
				<port id="0" precision="I64" names="/Constant_3_output_0">
					<dim>1</dim>
				</port>
			</output>
		</layer>
		<layer id="7" name="/Slice" type="Slice" version="opset8">
			<input>
				<port id="0" precision="FP32">
					<dim>1</dim>
					<dim>60</dim>
					<dim>42</dim>
					<dim>2</dim>
				</port>
				<port id="1" precision="I64">
					<dim>1</dim>
				</port>
				<port id="2" precision="I64">
					<dim>1</dim>
				</port>
				<port id="3" precision="I64">
					<dim>1</dim>
				</port>
				<port id="4" precision="I64">
					<dim>1</dim>
				</port>
			</input>
			<output>
				<port id="5" precision="FP32" names="/Slice_output_0">
					<dim>1</dim>
					<dim>60</dim>
					<dim>21</dim>
					<dim>2</dim>
				</port>
			</output>
		</layer>
		<layer id="8" name="ShapeOf_10793" type="ShapeOf" version="opset3">
			<data output_type="i64" />
			<input>
				<port id="0" precision="FP32">
					<dim>1</dim>
					<dim>60</dim>
					<dim>21</dim>
					<dim>2</dim>
				</port>
			</input>
			<output>
				<port id="1" precision="I64">
					<dim>4</dim>
				</port>
			</output>
		</layer>
		<layer id="9" name="Constant_10794" type="Const" version="opset1">
			<data element_type="i64" shape="1" offset="5124" size="8" />
			<rt_info>
				<attribute name="precise" version="0" />
			</rt_info>
			<output>
				<port id="0" precision="I64">
					<dim>1</dim>
				</port>
			</output>
		</layer>
		<layer id="10" name="Constant_10795" type="Const" version="opset1">
			<data element_type="i64" shape="" offset="5124" size="8" />
			<rt_info>
				<attribute name="precise" version="0" />
			</rt_info>
			<output>
				<port id="0" precision="I64" />
			</output>
		</layer>
		<layer id="11" name="Gather_10796" type="Gather" version="opset8">
			<data batch_dims="0" />
			<input>
				<port id="0" precision="I64">
					<dim>4</dim>
				</port>
				<port id="1" precision="I64">
					<dim>1</dim>
				</port>
				<port id="2" precision="I64" />
			</input>
			<output>
				<port id="3" precision="I64" names="/model1/Gather_4_output_0,/model1/Unsqueeze_3_output_0,/model1/Unsqueeze_4_output_0,/model1/Unsqueeze_5_output_0,/model2/Gather_4_output_0,/model2/Unsqueeze_3_output_0,/model2/Unsqueeze_4_output_0,/model2/Unsqueeze_5_output_0,/model3/Gather_4_output_0,/model3/Unsqueeze_3_output_0,/model3/Unsqueeze_4_output_0,/model3/Unsqueeze_5_output_0">
					<dim>1</dim>
				</port>
			</output>
		</layer>
		<layer id="12" name="/model1/Constant_13" type="Const" version="opset1">
			<data element_type="i64" shape="1" offset="5156" size="8" />
			<rt_info>
				<attribute name="precise" version="0" />
			</rt_info>
			<output>
				<port id="0" precision="I64" names="/model1/Constant_13_output_0">
					<dim>1</dim>
				</port>
			</output>
		</layer>
		<layer id="13" name="/model1/Constant_14" type="Const" version="opset1">
			<data element_type="i64" shape="1" offset="5156" size="8" />
			<rt_info>
				<attribute name="precise" version="0" />
			</rt_info>
			<output>
				<port id="0" precision="I64" names="/model1/Constant_14_output_0">
					<dim>1</dim>
				</port>
			</output>
		</layer>
		<layer id="14" name="/model1/Concat_4" type="Concat" version="opset1">
			<data axis="0" />
			<input>
				<port id="0" precision="I64">
					<dim>1</dim>
				</port>
				<port id="1" precision="I64">
					<dim>1</dim>
				</port>
				<port id="2" precision="I64">
					<dim>1</dim>
				</port>
			</input>
			<output>
				<port id="3" precision="I64" names="/model1/Concat_4_output_0,/model1/Reshape_3_output_0,/model2/Concat_4_output_0,/model2/Reshape_3_output_0,/model3/Concat_4_output_0,/model3/Reshape_3_output_0">
					<dim>3</dim>
				</port>
			</output>
		</layer>
		<layer id="15" name="/model1/Mul_2" type="Const" version="opset1">
			<data element_type="i64" shape="3" offset="5164" size="24" />
			<rt_info>
				<attribute name="precise" version="0" />
			</rt_info>
			<output>
				<port id="0" precision="I64" names="/model1/Mul_2_output_0">
					<dim>3</dim>
				</port>
			</output>
		</layer>
		<layer id="16" name="/model1/Equal_1" type="Equal" version="opset1">
			<data auto_broadcast="numpy" />
			<input>
				<port id="0" precision="I64">
					<dim>3</dim>
				</port>
				<port id="1" precision="I64">
					<dim>3</dim>
				</port>
			</input>
			<output>
				<port id="2" precision="BOOL" names="/model1/Equal_1_output_0,/model2/Equal_1_output_0,/model3/Equal_1_output_0">
					<dim>3</dim>
				</port>
			</output>
		</layer>
		<layer id="17" name="/model1/ConstantOfShape_1" type="Const" version="opset1">
			<data element_type="i64" shape="3" offset="5188" size="24" />
			<rt_info>
				<attribute name="precise" version="0" />
			</rt_info>
			<output>
				<port id="0" precision="I64" names="/model1/ConstantOfShape_1_output_0">
					<dim>3</dim>
				</port>
			</output>
		</layer>
		<layer id="18" name="/model1/Where_1" type="Select" version="opset1">
			<data auto_broadcast="numpy" />
			<input>
				<port id="0" precision="BOOL">
					<dim>3</dim>
				</port>
				<port id="1" precision="I64">
					<dim>3</dim>
				</port>
				<port id="2" precision="I64">
					<dim>3</dim>
				</port>
			</input>
			<output>
				<port id="3" precision="I64" names="/model1/Where_1_output_0,/model2/Where_1_output_0,/model3/Where_1_output_0">
					<dim>3</dim>
				</port>
			</output>
		</layer>
		<layer id="19" name="/model1/Expand_1" type="Broadcast" version="opset3">
			<data mode="bidirectional" />
			<input>
				<port id="0" precision="FP32">
					<dim>1</dim>
					<dim>61</dim>
					<dim>42</dim>
				</port>
				<port id="1" precision="I64">
					<dim>3</dim>
				</port>
			</input>
			<output>
				<port id="2" precision="FP32" names="/model1/Expand_1_output_0">
					<dim>1</dim>
					<dim>61</dim>
					<dim>42</dim>
				</port>
			</output>
		</layer>
		<layer id="20" name="/model1/Constant_19" type="Const" version="opset1">
			<data element_type="i64" shape="1" offset="5124" size="8" />
			<output>
				<port id="0" precision="I64" names="/model1/Constant_19_output_0">
					<dim>1</dim>
				</port>
			</output>
		</layer>
		<layer id="21" name="Constant_10816" type="Const" version="opset1">
			<data element_type="i64" shape="1" offset="5140" size="8" />
			<output>
				<port id="0" precision="I64">
					<dim>1</dim>
				</port>
			</output>
		</layer>
		<layer id="22" name="Constant_10817" type="Const" version="opset1">
			<data element_type="i64" shape="" offset="5124" size="8" />
			<output>
				<port id="0" precision="I64" />
			</output>
		</layer>
		<layer id="23" name="Gather_10818" type="Gather" version="opset8">
			<data batch_dims="0" />
			<input>
				<port id="0" precision="I64">
					<dim>4</dim>
				</port>
				<port id="1" precision="I64">
					<dim>1</dim>
				</port>
				<port id="2" precision="I64" />
			</input>
			<output>
				<port id="3" precision="I64" names="/model1/Gather_5_output_0,/model2/Gather_5_output_0,/model3/Gather_5_output_0">
					<dim>1</dim>
				</port>
			</output>
		</layer>
		<layer id="24" name="Constant_8315" type="Const" version="opset1">
			<data element_type="i64" shape="1" offset="5140" size="8" />
			<output>
				<port id="0" precision="I64">
					<dim>1</dim>
				</port>
			</output>
		</layer>
		<layer id="25" name="/model1/Add" type="Add" version="opset1">
			<data auto_broadcast="numpy" />
			<input>
				<port id="0" precision="I64">
					<dim>1</dim>
				</port>
				<port id="1" precision="I64">
					<dim>1</dim>
				</port>
			</input>
			<output>
				<port id="2" precision="I64" names="/model1/Add_output_0,/model1/Unsqueeze_6_output_0,/model2/Add_output_0,/model2/Unsqueeze_6_output_0,/model3/Add_output_0,/model3/Unsqueeze_6_output_0">
					<dim>1</dim>
				</port>
			</output>
		</layer>
		<layer id="26" name="/model1/Constant_21" type="Const" version="opset1">
			<data element_type="i64" shape="1" offset="5140" size="8" />
			<output>
				<port id="0" precision="I64" names="/model1/Constant_21_output_0">
					<dim>1</dim>
				</port>
			</output>
		</layer>
		<layer id="27" name="/model1/Constant_18" type="Const" version="opset1">
			<data element_type="i64" shape="1" offset="5140" size="8" />
			<output>
				<port id="0" precision="I64" names="/model1/Constant_18_output_0">
					<dim>1</dim>
				</port>
			</output>
		</layer>
		<layer id="28" name="/model1/Slice" type="Slice" version="opset8">
			<input>
				<port id="0" precision="FP32">
					<dim>1</dim>
					<dim>61</dim>
					<dim>42</dim>
				</port>
				<port id="1" precision="I64">
					<dim>1</dim>
				</port>
				<port id="2" precision="I64">
					<dim>1</dim>
				</port>
				<port id="3" precision="I64">
					<dim>1</dim>
				</port>
				<port id="4" precision="I64">
					<dim>1</dim>
				</port>
			</input>
			<output>
				<port id="5" precision="FP32" names="/model1/Slice_output_0">
					<dim>1</dim>
					<dim>61</dim>
					<dim>42</dim>
				</port>
			</output>
		</layer>
		<layer id="29" name="onnx::Expand_937_compressed" type="Const" version="opset1">
			<data element_type="f16" shape="1, 42" offset="5212" size="84" />
			<output>
				<port id="0" precision="FP16">
					<dim>1</dim>
					<dim>42</dim>
				</port>
			</output>
		</layer>
		<layer id="30" name="onnx::Expand_937" type="Convert" version="opset1">
			<data destination_type="f32" />
			<rt_info>
				<attribute name="decompression" version="0" />
			</rt_info>
			<input>
				<port id="0" precision="FP16">
					<dim>1</dim>
					<dim>42</dim>
				</port>
			</input>
			<output>
				<port id="1" precision="FP32" names="onnx::Expand_937">
					<dim>1</dim>
					<dim>42</dim>
				</port>
			</output>
		</layer>
		<layer id="31" name="/model1/Constant_7" type="Const" version="opset1">
			<data element_type="i64" shape="1" offset="5156" size="8" />
			<rt_info>
				<attribute name="precise" version="0" />
			</rt_info>
			<output>
				<port id="0" precision="I64" names="/model1/Constant_7_output_0">
					<dim>1</dim>
				</port>
			</output>
		</layer>
		<layer id="32" name="/model1/Concat_1" type="Concat" version="opset1">
			<data axis="0" />
			<input>
				<port id="0" precision="I64">
					<dim>1</dim>
				</port>
				<port id="1" precision="I64">
					<dim>1</dim>
				</port>
			</input>
			<output>
				<port id="2" precision="I64" names="/model1/Concat_1_output_0,/model1/Reshape_1_output_0,/model2/Concat_1_output_0,/model2/Reshape_1_output_0,/model3/Concat_1_output_0,/model3/Reshape_1_output_0">
					<dim>2</dim>
				</port>
			</output>
		</layer>
		<layer id="33" name="/model1/Mul_1" type="Const" version="opset1">
			<data element_type="i64" shape="2" offset="5296" size="16" />
			<rt_info>
				<attribute name="precise" version="0" />
			</rt_info>
			<output>
				<port id="0" precision="I64" names="/model1/Mul_1_output_0">
					<dim>2</dim>
				</port>
			</output>
		</layer>
		<layer id="34" name="/model1/Equal" type="Equal" version="opset1">
			<data auto_broadcast="numpy" />
			<input>
				<port id="0" precision="I64">
					<dim>2</dim>
				</port>
				<port id="1" precision="I64">
					<dim>2</dim>
				</port>
			</input>
			<output>
				<port id="2" precision="BOOL" names="/model1/Equal_output_0,/model2/Equal_output_0,/model3/Equal_output_0">
					<dim>2</dim>
				</port>
			</output>
		</layer>
		<layer id="35" name="/model1/ConstantOfShape" type="Const" version="opset1">
			<data element_type="i64" shape="2" offset="5312" size="16" />
			<rt_info>
				<attribute name="precise" version="0" />
			</rt_info>
			<output>
				<port id="0" precision="I64" names="/model1/ConstantOfShape_output_0">
					<dim>2</dim>
				</port>
			</output>
		</layer>
		<layer id="36" name="/model1/Where" type="Select" version="opset1">
			<data auto_broadcast="numpy" />
			<input>
				<port id="0" precision="BOOL">
					<dim>2</dim>
				</port>
				<port id="1" precision="I64">
					<dim>2</dim>
				</port>
				<port id="2" precision="I64">
					<dim>2</dim>
				</port>
			</input>
			<output>
				<port id="3" precision="I64" names="/model1/Where_output_0,/model2/Where_output_0,/model3/Where_output_0">
					<dim>2</dim>
				</port>
			</output>
		</layer>
		<layer id="37" name="/model1/Expand" type="Broadcast" version="opset3">
			<data mode="bidirectional" />
			<input>
				<port id="0" precision="FP32">
					<dim>1</dim>
					<dim>42</dim>
				</port>
				<port id="1" precision="I64">
					<dim>2</dim>
				</port>
			</input>
			<output>
				<port id="2" precision="FP32" names="/model1/Expand_output_0">
					<dim>1</dim>
					<dim>42</dim>
				</port>
			</output>
		</layer>
		<layer id="38" name="Constant_10928" type="Const" version="opset1">
			<data element_type="i64" shape="3" offset="5328" size="24" />
			<rt_info>
				<attribute name="precise" version="0" />
			</rt_info>
			<output>
				<port id="0" precision="I64">
					<dim>3</dim>
				</port>
			</output>
		</layer>
		<layer id="39" name="/model1/Reshape_2" type="Reshape" version="opset1">
			<data special_zero="true" />
			<input>
				<port id="0" precision="FP32">
					<dim>1</dim>
					<dim>42</dim>
				</port>
				<port id="1" precision="I64">
					<dim>3</dim>
				</port>
			</input>
			<output>
				<port id="2" precision="FP32" names="/model1/Reshape_2_output_0">
					<dim>1</dim>
					<dim>1</dim>
					<dim>42</dim>
				</port>
			</output>
		</layer>
		<layer id="40" name="Constant_10929" type="Const" version="opset1">
			<data element_type="i64" shape="3" offset="5352" size="24" />
			<rt_info>
				<attribute name="precise" version="0" />
			</rt_info>
			<output>
				<port id="0" precision="I64">
					<dim>3</dim>
				</port>
			</output>
		</layer>
		<layer id="41" name="/model1/Reshape" type="Reshape" version="opset1">
			<data special_zero="true" />
			<input>
				<port id="0" precision="FP32">
					<dim>1</dim>
					<dim>60</dim>
					<dim>21</dim>
					<dim>2</dim>
				</port>
				<port id="1" precision="I64">
					<dim>3</dim>
				</port>
			</input>
			<output>
				<port id="2" precision="FP32" names="/model1/Reshape_output_0">
					<dim>1</dim>
					<dim>60</dim>
					<dim>42</dim>
				</port>
			</output>
		</layer>
		<layer id="42" name="/model1/Concat_3" type="Concat" version="opset1">
			<data axis="1" />
			<input>
				<port id="0" precision="FP32">
					<dim>1</dim>
					<dim>1</dim>
					<dim>42</dim>
				</port>
				<port id="1" precision="FP32">
					<dim>1</dim>
					<dim>60</dim>
					<dim>42</dim>
				</port>
			</input>
			<output>
				<port id="2" precision="FP32" names="/model1/Concat_3_output_0">
					<dim>1</dim>
					<dim>61</dim>
					<dim>42</dim>
				</port>
			</output>
		</layer>
		<layer id="43" name="/model1/Add_1" type="Add" version="opset1">
			<data auto_broadcast="numpy" />
			<input>
				<port id="0" precision="FP32">
					<dim>1</dim>
					<dim>61</dim>
					<dim>42</dim>
				</port>
				<port id="1" precision="FP32">
					<dim>1</dim>
					<dim>61</dim>
					<dim>42</dim>
				</port>
			</input>
			<output>
				<port id="2" precision="FP32" names="/model1/Add_1_output_0">
					<dim>1</dim>
					<dim>61</dim>
					<dim>42</dim>
				</port>
			</output>
		</layer>
		<layer id="44" name="Constant_10155_compressed" type="Const" version="opset1">
			<data element_type="f16" shape="1, 1, 126" offset="5376" size="252" />
			<output>
				<port id="0" precision="FP16">
					<dim>1</dim>
					<dim>1</dim>
					<dim>126</dim>
				</port>
			</output>
		</layer>
		<layer id="45" name="Constant_10155" type="Convert" version="opset1">
			<data destination_type="f32" />
			<rt_info>
				<attribute name="decompression" version="0" />
			</rt_info>
			<input>
				<port id="0" precision="FP16">
					<dim>1</dim>
					<dim>1</dim>
					<dim>126</dim>
				</port>
			</input>
			<output>
				<port id="1" precision="FP32">
					<dim>1</dim>
					<dim>1</dim>
					<dim>126</dim>
				</port>
			</output>
		</layer>
		<layer id="46" name="Transpose_9768_compressed" type="Const" version="opset1">
			<data element_type="f16" shape="126, 42" offset="5628" size="10584" />
			<output>
				<port id="0" precision="FP16">
					<dim>126</dim>
					<dim>42</dim>
				</port>
			</output>
		</layer>
		<layer id="47" name="Transpose_9768" type="Convert" version="opset1">
			<data destination_type="f32" />
			<rt_info>
				<attribute name="decompression" version="0" />
			</rt_info>
			<input>
				<port id="0" precision="FP16">
					<dim>126</dim>
					<dim>42</dim>
				</port>
			</input>
			<output>
				<port id="1" precision="FP32">
					<dim>126</dim>
					<dim>42</dim>
				</port>
			</output>
		</layer>
		<layer id="48" name="/model1/encoder/layers.0/self_attn/MatMul" type="MatMul" version="opset1">
			<data transpose_a="false" transpose_b="true" />
			<input>
				<port id="0" precision="FP32">
					<dim>1</dim>
					<dim>61</dim>
					<dim>42</dim>
				</port>
				<port id="1" precision="FP32">
					<dim>126</dim>
					<dim>42</dim>
				</port>
			</input>
			<output>
				<port id="2" precision="FP32" names="/model1/encoder/layers.0/self_attn/MatMul_output_0">
					<dim>1</dim>
					<dim>61</dim>
					<dim>126</dim>
				</port>
			</output>
		</layer>
		<layer id="49" name="/model1/encoder/layers.0/self_attn/Add" type="Add" version="opset1">
			<data auto_broadcast="numpy" />
			<input>
				<port id="0" precision="FP32">
					<dim>1</dim>
					<dim>1</dim>
					<dim>126</dim>
				</port>
				<port id="1" precision="FP32">
					<dim>1</dim>
					<dim>61</dim>
					<dim>126</dim>
				</port>
			</input>
			<output>
				<port id="2" precision="FP32" names="/model1/encoder/layers.0/self_attn/Add_output_0">
					<dim>1</dim>
					<dim>61</dim>
					<dim>126</dim>
				</port>
			</output>
		</layer>
		<layer id="50" name="Constant_10930" type="Const" version="opset1">
			<data element_type="i64" shape="4" offset="16212" size="32" />
			<rt_info>
				<attribute name="precise" version="0" />
			</rt_info>
			<output>
				<port id="0" precision="I64">
					<dim>4</dim>
				</port>
			</output>
		</layer>
		<layer id="51" name="/model1/encoder/layers.0/self_attn/Reshape_2" type="Reshape" version="opset1">
			<data special_zero="true" />
			<input>
				<port id="0" precision="FP32">
					<dim>1</dim>
					<dim>61</dim>
					<dim>126</dim>
				</port>
				<port id="1" precision="I64">
					<dim>4</dim>
				</port>
			</input>
			<output>
				<port id="2" precision="FP32" names="/model1/encoder/layers.0/self_attn/Reshape_2_output_0">
					<dim>1</dim>
					<dim>61</dim>
					<dim>3</dim>
					<dim>42</dim>
				</port>
			</output>
		</layer>
		<layer id="52" name="/model1/encoder/layers.0/self_attn/Constant_16" type="Const" version="opset1">
			<data element_type="i64" shape="1" offset="5124" size="8" />
			<output>
				<port id="0" precision="I64" names="/model1/encoder/layers.0/self_attn/Constant_16_output_0">
					<dim>1</dim>
				</port>
			</output>
		</layer>
		<layer id="53" name="/model1/encoder/layers.0/self_attn/Unsqueeze_1" type="Unsqueeze" version="opset1">
			<input>
				<port id="0" precision="FP32">
					<dim>1</dim>
					<dim>61</dim>
					<dim>3</dim>
					<dim>42</dim>
				</port>
				<port id="1" precision="I64">
					<dim>1</dim>
				</port>
			</input>
			<output>
				<port id="2" precision="FP32" names="/model1/encoder/layers.0/self_attn/Unsqueeze_1_output_0">
					<dim>1</dim>
					<dim>1</dim>
					<dim>61</dim>
					<dim>3</dim>
					<dim>42</dim>
				</port>
			</output>
		</layer>
		<layer id="54" name="Constant_9580" type="Const" version="opset1">
			<data element_type="i64" shape="1" offset="5124" size="8" />
			<output>
				<port id="0" precision="I64">
					<dim>1</dim>
				</port>
			</output>
		</layer>
		<layer id="55" name="Squeeze_9581" type="Squeeze" version="opset1">
			<input>
				<port id="0" precision="FP32">
					<dim>1</dim>
					<dim>1</dim>
					<dim>61</dim>
					<dim>3</dim>
					<dim>42</dim>
				</port>
				<port id="1" precision="I64">
					<dim>1</dim>
				</port>
			</input>
			<output>
				<port id="2" precision="FP32">
					<dim>1</dim>
					<dim>61</dim>
					<dim>3</dim>
					<dim>42</dim>
				</port>
			</output>
		</layer>
		<layer id="56" name="Constant_9582" type="Const" version="opset1">
			<data element_type="i64" shape="4" offset="16244" size="32" />
			<output>
				<port id="0" precision="I64">
					<dim>4</dim>
				</port>
			</output>
		</layer>
		<layer id="57" name="/model1/encoder/layers.0/self_attn/Squeeze_1" type="Transpose" version="opset1">
			<input>
				<port id="0" precision="FP32">
					<dim>1</dim>
					<dim>61</dim>
					<dim>3</dim>
					<dim>42</dim>
				</port>
				<port id="1" precision="I64">
					<dim>4</dim>
				</port>
			</input>
			<output>
				<port id="2" precision="FP32" names="/model1/encoder/layers.0/self_attn/Squeeze_1_output_0">
					<dim>3</dim>
					<dim>1</dim>
					<dim>61</dim>
					<dim>42</dim>
				</port>
			</output>
		</layer>
		<layer id="58" name="/Constant" type="Const" version="opset1">
			<data element_type="i64" shape="" offset="5124" size="8" />
			<output>
				<port id="0" precision="I64" names="/Constant_output_0" />
			</output>
		</layer>
		<layer id="59" name="Constant_223" type="Const" version="opset1">
			<data element_type="i64" shape="" offset="5124" size="8" />
			<output>
				<port id="0" precision="I64" />
			</output>
		</layer>
		<layer id="60" name="/model1/encoder/layers.0/self_attn/Gather_3" type="Gather" version="opset8">
			<data batch_dims="0" />
			<input>
				<port id="0" precision="FP32">
					<dim>3</dim>
					<dim>1</dim>
					<dim>61</dim>
					<dim>42</dim>
				</port>
				<port id="1" precision="I64" />
				<port id="2" precision="I64" />
			</input>
			<output>
				<port id="3" precision="FP32" names="/model1/encoder/layers.0/self_attn/Gather_3_output_0">
					<dim>1</dim>
					<dim>61</dim>
					<dim>42</dim>
				</port>
			</output>
		</layer>
		<layer id="61" name="Constant_10931" type="Const" version="opset1">
			<data element_type="i64" shape="3" offset="16276" size="24" />
			<rt_info>
				<attribute name="precise" version="0" />
			</rt_info>
			<output>
				<port id="0" precision="I64">
					<dim>3</dim>
				</port>
			</output>
		</layer>
		<layer id="62" name="/model1/encoder/layers.0/self_attn/Reshape_3" type="Reshape" version="opset1">
			<data special_zero="true" />
			<input>
				<port id="0" precision="FP32">
					<dim>1</dim>
					<dim>61</dim>
					<dim>42</dim>
				</port>
				<port id="1" precision="I64">
					<dim>3</dim>
				</port>
			</input>
			<output>
				<port id="2" precision="FP32" names="/model1/encoder/layers.0/self_attn/Reshape_3_output_0">
					<dim>1</dim>
					<dim>61</dim>
					<dim>42</dim>
				</port>
			</output>
		</layer>
		<layer id="63" name="Constant_283" type="Const" version="opset1">
			<data element_type="i64" shape="3" offset="16300" size="24" />
			<output>
				<port id="0" precision="I64">
					<dim>3</dim>
				</port>
			</output>
		</layer>
		<layer id="64" name="/model1/encoder/layers.0/self_attn/Transpose_1" type="Transpose" version="opset1">
			<input>
				<port id="0" precision="FP32">
					<dim>1</dim>
					<dim>61</dim>
					<dim>42</dim>
				</port>
				<port id="1" precision="I64">
					<dim>3</dim>
				</port>
			</input>
			<output>
				<port id="2" precision="FP32" names="/model1/encoder/layers.0/self_attn/Transpose_1_output_0">
					<dim>61</dim>
					<dim>1</dim>
					<dim>42</dim>
				</port>
			</output>
		</layer>
		<layer id="65" name="Constant_10932" type="Const" version="opset1">
			<data element_type="i64" shape="4" offset="16324" size="32" />
			<rt_info>
				<attribute name="precise" version="0" />
			</rt_info>
			<output>
				<port id="0" precision="I64">
					<dim>4</dim>
				</port>
			</output>
		</layer>
		<layer id="66" name="/model1/encoder/layers.0/self_attn/Reshape_6" type="Reshape" version="opset1">
			<data special_zero="true" />
			<input>
				<port id="0" precision="FP32">
					<dim>61</dim>
					<dim>1</dim>
					<dim>42</dim>
				</port>
				<port id="1" precision="I64">
					<dim>4</dim>
				</port>
			</input>
			<output>
				<port id="2" precision="FP32" names="/model1/encoder/layers.0/self_attn/Reshape_6_output_0">
					<dim>61</dim>
					<dim>1</dim>
					<dim>1</dim>
					<dim>42</dim>
				</port>
			</output>
		</layer>
		<layer id="67" name="/model1/encoder/layers.0/self_attn/Constant_26_compressed" type="Const" version="opset1">
			<data element_type="f16" shape="1" offset="16356" size="2" />
			<output>
				<port id="0" precision="FP16">
					<dim>1</dim>
				</port>
			</output>
		</layer>
		<layer id="68" name="/model1/encoder/layers.0/self_attn/Constant_26" type="Convert" version="opset1">
			<data destination_type="f32" />
			<rt_info>
				<attribute name="decompression" version="0" />
			</rt_info>
			<input>
				<port id="0" precision="FP16">
					<dim>1</dim>
				</port>
			</input>
			<output>
				<port id="1" precision="FP32" names="/model1/encoder/layers.0/self_attn/Constant_26_output_0">
					<dim>1</dim>
				</port>
			</output>
		</layer>
		<layer id="69" name="/model1/encoder/layers.0/self_attn/Shape_6" type="ShapeOf" version="opset3">
			<data output_type="i64" />
			<input>
				<port id="0" precision="FP32">
					<dim>61</dim>
					<dim>1</dim>
					<dim>1</dim>
					<dim>42</dim>
				</port>
			</input>
			<output>
				<port id="1" precision="I64" names="/model1/encoder/layers.0/self_attn/Shape_6_output_0">
					<dim>4</dim>
				</port>
			</output>
		</layer>
		<layer id="70" name="/model1/encoder/layers.0/self_attn/Constant_24" type="Const" version="opset1">
			<data element_type="i64" shape="1" offset="5156" size="8" />
			<output>
				<port id="0" precision="I64" names="/model1/encoder/layers.0/self_attn/Constant_24_output_0">
					<dim>1</dim>
				</port>
			</output>
		</layer>
		<layer id="71" name="/model1/encoder/layers.0/self_attn/Constant_25" type="Const" version="opset1">
			<data element_type="i64" shape="1" offset="16358" size="8" />
			<output>
				<port id="0" precision="I64" names="/model1/encoder/layers.0/self_attn/Constant_25_output_0">
					<dim>1</dim>
				</port>
			</output>
		</layer>
		<layer id="72" name="Broadcast_569" type="Const" version="opset1">
			<data element_type="i64" shape="1" offset="5140" size="8" />
			<output>
				<port id="0" precision="I64">
					<dim>1</dim>
				</port>
			</output>
		</layer>
		<layer id="73" name="Constant_573" type="Const" version="opset1">
			<data element_type="i64" shape="1" offset="5124" size="8" />
			<output>
				<port id="0" precision="I64">
					<dim>1</dim>
				</port>
			</output>
		</layer>
		<layer id="74" name="/model1/encoder/layers.0/self_attn/Slice_3" type="Slice" version="opset8">
			<input>
				<port id="0" precision="I64">
					<dim>4</dim>
				</port>
				<port id="1" precision="I64">
					<dim>1</dim>
				</port>
				<port id="2" precision="I64">
					<dim>1</dim>
				</port>
				<port id="3" precision="I64">
					<dim>1</dim>
				</port>
				<port id="4" precision="I64">
					<dim>1</dim>
				</port>
			</input>
			<output>
				<port id="5" precision="I64" names="/model1/encoder/layers.0/self_attn/Slice_3_output_0">
					<dim>1</dim>
				</port>
			</output>
		</layer>
		<layer id="75" name="/model1/encoder/layers.0/self_attn/Cast_2" type="Convert" version="opset1">
			<data destination_type="f32" />
			<input>
				<port id="0" precision="I64">
					<dim>1</dim>
				</port>
			</input>
			<output>
				<port id="1" precision="FP32" names="/model1/encoder/layers.0/self_attn/Cast_2_output_0">
					<dim>1</dim>
				</port>
			</output>
		</layer>
		<layer id="76" name="/model1/encoder/layers.0/self_attn/Sqrt" type="Sqrt" version="opset1">
			<input>
				<port id="0" precision="FP32">
					<dim>1</dim>
				</port>
			</input>
			<output>
				<port id="1" precision="FP32" names="/model1/encoder/layers.0/self_attn/Sqrt_output_0">
					<dim>1</dim>
				</port>
			</output>
		</layer>
		<layer id="77" name="/model1/encoder/layers.0/self_attn/Div_1" type="Divide" version="opset1">
			<data auto_broadcast="numpy" m_pythondiv="true" />
			<input>
				<port id="0" precision="FP32">
					<dim>1</dim>
				</port>
				<port id="1" precision="FP32">
					<dim>1</dim>
				</port>
			</input>
			<output>
				<port id="2" precision="FP32" names="/model1/encoder/layers.0/self_attn/Cast_3_output_0,/model1/encoder/layers.0/self_attn/Div_1_output_0">
					<dim>1</dim>
				</port>
			</output>
		</layer>
		<layer id="78" name="/model1/encoder/layers.0/self_attn/Sqrt_1" type="Sqrt" version="opset1">
			<input>
				<port id="0" precision="FP32">
					<dim>1</dim>
				</port>
			</input>
			<output>
				<port id="1" precision="FP32" names="/model1/encoder/layers.0/self_attn/Sqrt_1_output_0,/model1/encoder/layers.0/self_attn/Sqrt_2_output_0">
					<dim>1</dim>
				</port>
			</output>
		</layer>
		<layer id="79" name="/model1/encoder/layers.0/self_attn/Mul" type="Multiply" version="opset1">
			<data auto_broadcast="numpy" />
			<input>
				<port id="0" precision="FP32">
					<dim>61</dim>
					<dim>1</dim>
					<dim>1</dim>
					<dim>42</dim>
				</port>
				<port id="1" precision="FP32">
					<dim>1</dim>
				</port>
			</input>
			<output>
				<port id="2" precision="FP32" names="/model1/encoder/layers.0/self_attn/Mul_output_0">
					<dim>61</dim>
					<dim>1</dim>
					<dim>1</dim>
					<dim>42</dim>
				</port>
			</output>
		</layer>
		<layer id="80" name="/Constant_1" type="Const" version="opset1">
			<data element_type="i64" shape="" offset="5140" size="8" />
			<output>
				<port id="0" precision="I64" names="/Constant_1_output_0" />
			</output>
		</layer>
		<layer id="81" name="Constant_225" type="Const" version="opset1">
			<data element_type="i64" shape="" offset="5124" size="8" />
			<output>
				<port id="0" precision="I64" />
			</output>
		</layer>
		<layer id="82" name="/model1/encoder/layers.0/self_attn/Gather_4" type="Gather" version="opset8">
			<data batch_dims="0" />
			<input>
				<port id="0" precision="FP32">
					<dim>3</dim>
					<dim>1</dim>
					<dim>61</dim>
					<dim>42</dim>
				</port>
				<port id="1" precision="I64" />
				<port id="2" precision="I64" />
			</input>
			<output>
				<port id="3" precision="FP32" names="/model1/encoder/layers.0/self_attn/Gather_4_output_0">
					<dim>1</dim>
					<dim>61</dim>
					<dim>42</dim>
				</port>
			</output>
		</layer>
		<layer id="83" name="Constant_10933" type="Const" version="opset1">
			<data element_type="i64" shape="3" offset="16366" size="24" />
			<rt_info>
				<attribute name="precise" version="0" />
			</rt_info>
			<output>
				<port id="0" precision="I64">
					<dim>3</dim>
				</port>
			</output>
		</layer>
		<layer id="84" name="/model1/encoder/layers.0/self_attn/Reshape_4" type="Reshape" version="opset1">
			<data special_zero="true" />
			<input>
				<port id="0" precision="FP32">
					<dim>1</dim>
					<dim>61</dim>
					<dim>42</dim>
				</port>
				<port id="1" precision="I64">
					<dim>3</dim>
				</port>
			</input>
			<output>
				<port id="2" precision="FP32" names="/model1/encoder/layers.0/self_attn/Reshape_4_output_0">
					<dim>1</dim>
					<dim>61</dim>
					<dim>42</dim>
				</port>
			</output>
		</layer>
		<layer id="85" name="Constant_9776" type="Const" version="opset1">
			<data element_type="i64" shape="3" offset="16390" size="24" />
			<rt_info>
				<attribute name="precise" version="0" />
			</rt_info>
			<output>
				<port id="0" precision="I64">
					<dim>3</dim>
				</port>
			</output>
		</layer>
		<layer id="86" name="/model1/encoder/layers.0/self_attn/Transpose_2" type="Reshape" version="opset1">
			<data special_zero="true" />
			<input>
				<port id="0" precision="FP32">
					<dim>1</dim>
					<dim>61</dim>
					<dim>42</dim>
				</port>
				<port id="1" precision="I64">
					<dim>3</dim>
				</port>
			</input>
			<output>
				<port id="2" precision="FP32" names="/model1/encoder/layers.0/self_attn/Transpose_2_output_0">
					<dim>61</dim>
					<dim>1</dim>
					<dim>42</dim>
				</port>
			</output>
		</layer>
		<layer id="87" name="Constant_10934" type="Const" version="opset1">
			<data element_type="i64" shape="4" offset="16414" size="32" />
			<rt_info>
				<attribute name="precise" version="0" />
			</rt_info>
			<output>
				<port id="0" precision="I64">
					<dim>4</dim>
				</port>
			</output>
		</layer>
		<layer id="88" name="/model1/encoder/layers.0/self_attn/Reshape_7" type="Reshape" version="opset1">
			<data special_zero="true" />
			<input>
				<port id="0" precision="FP32">
					<dim>61</dim>
					<dim>1</dim>
					<dim>42</dim>
				</port>
				<port id="1" precision="I64">
					<dim>4</dim>
				</port>
			</input>
			<output>
				<port id="2" precision="FP32" names="/model1/encoder/layers.0/self_attn/Reshape_7_output_0">
					<dim>61</dim>
					<dim>1</dim>
					<dim>1</dim>
					<dim>42</dim>
				</port>
			</output>
		</layer>
		<layer id="89" name="Constant_9778" type="Const" version="opset1">
			<data element_type="i64" shape="4" offset="16446" size="32" />
			<rt_info>
				<attribute name="precise" version="0" />
			</rt_info>
			<output>
				<port id="0" precision="I64">
					<dim>4</dim>
				</port>
			</output>
		</layer>
		<layer id="90" name="/model1/encoder/layers.0/self_attn/Transpose_4" type="Reshape" version="opset1">
			<data special_zero="true" />
			<input>
				<port id="0" precision="FP32">
					<dim>61</dim>
					<dim>1</dim>
					<dim>1</dim>
					<dim>42</dim>
				</port>
				<port id="1" precision="I64">
					<dim>4</dim>
				</port>
			</input>
			<output>
				<port id="2" precision="FP32" names="/model1/encoder/layers.0/self_attn/Transpose_4_output_0">
					<dim>61</dim>
					<dim>1</dim>
					<dim>42</dim>
					<dim>1</dim>
				</port>
			</output>
		</layer>
		<layer id="91" name="/model1/encoder/layers.0/self_attn/Mul_1" type="Multiply" version="opset1">
			<data auto_broadcast="numpy" />
			<input>
				<port id="0" precision="FP32">
					<dim>61</dim>
					<dim>1</dim>
					<dim>42</dim>
					<dim>1</dim>
				</port>
				<port id="1" precision="FP32">
					<dim>1</dim>
				</port>
			</input>
			<output>
				<port id="2" precision="FP32" names="/model1/encoder/layers.0/self_attn/Mul_1_output_0">
					<dim>61</dim>
					<dim>1</dim>
					<dim>42</dim>
					<dim>1</dim>
				</port>
			</output>
		</layer>
		<layer id="92" name="/model1/encoder/layers.0/self_attn/MatMul_1" type="MatMul" version="opset1">
			<data transpose_a="false" transpose_b="false" />
			<input>
				<port id="0" precision="FP32">
					<dim>61</dim>
					<dim>1</dim>
					<dim>1</dim>
					<dim>42</dim>
				</port>
				<port id="1" precision="FP32">
					<dim>61</dim>
					<dim>1</dim>
					<dim>42</dim>
					<dim>1</dim>
				</port>
			</input>
			<output>
				<port id="2" precision="FP32" names="/model1/encoder/layers.0/self_attn/MatMul_1_output_0">
					<dim>61</dim>
					<dim>1</dim>
					<dim>1</dim>
					<dim>1</dim>
				</port>
			</output>
		</layer>
		<layer id="93" name="/model1/encoder/layers.0/self_attn/Softmax" type="SoftMax" version="opset8">
			<data axis="-1" />
			<input>
				<port id="0" precision="FP32">
					<dim>61</dim>
					<dim>1</dim>
					<dim>1</dim>
					<dim>1</dim>
				</port>
			</input>
			<output>
				<port id="1" precision="FP32" names="/model1/encoder/layers.0/self_attn/Softmax_output_0">
					<dim>61</dim>
					<dim>1</dim>
					<dim>1</dim>
					<dim>1</dim>
				</port>
			</output>
		</layer>
		<layer id="94" name="/Constant_2" type="Const" version="opset1">
			<data element_type="i64" shape="" offset="5148" size="8" />
			<output>
				<port id="0" precision="I64" names="/Constant_2_output_0" />
			</output>
		</layer>
		<layer id="95" name="Constant_227" type="Const" version="opset1">
			<data element_type="i64" shape="" offset="5124" size="8" />
			<output>
				<port id="0" precision="I64" />
			</output>
		</layer>
		<layer id="96" name="/model1/encoder/layers.0/self_attn/Gather_5" type="Gather" version="opset8">
			<data batch_dims="0" />
			<input>
				<port id="0" precision="FP32">
					<dim>3</dim>
					<dim>1</dim>
					<dim>61</dim>
					<dim>42</dim>
				</port>
				<port id="1" precision="I64" />
				<port id="2" precision="I64" />
			</input>
			<output>
				<port id="3" precision="FP32" names="/model1/encoder/layers.0/self_attn/Gather_5_output_0">
					<dim>1</dim>
					<dim>61</dim>
					<dim>42</dim>
				</port>
			</output>
		</layer>
		<layer id="97" name="Constant_10935" type="Const" version="opset1">
			<data element_type="i64" shape="3" offset="16366" size="24" />
			<rt_info>
				<attribute name="precise" version="0" />
			</rt_info>
			<output>
				<port id="0" precision="I64">
					<dim>3</dim>
				</port>
			</output>
		</layer>
		<layer id="98" name="/model1/encoder/layers.0/self_attn/Reshape_5" type="Reshape" version="opset1">
			<data special_zero="true" />
			<input>
				<port id="0" precision="FP32">
					<dim>1</dim>
					<dim>61</dim>
					<dim>42</dim>
				</port>
				<port id="1" precision="I64">
					<dim>3</dim>
				</port>
			</input>
			<output>
				<port id="2" precision="FP32" names="/model1/encoder/layers.0/self_attn/Reshape_5_output_0">
					<dim>1</dim>
					<dim>61</dim>
					<dim>42</dim>
				</port>
			</output>
		</layer>
		<layer id="99" name="Constant_9782" type="Const" version="opset1">
			<data element_type="i64" shape="3" offset="16390" size="24" />
			<rt_info>
				<attribute name="precise" version="0" />
			</rt_info>
			<output>
				<port id="0" precision="I64">
					<dim>3</dim>
				</port>
			</output>
		</layer>
		<layer id="100" name="/model1/encoder/layers.0/self_attn/Transpose_3" type="Reshape" version="opset1">
			<data special_zero="true" />
			<input>
				<port id="0" precision="FP32">
					<dim>1</dim>
					<dim>61</dim>
					<dim>42</dim>
				</port>
				<port id="1" precision="I64">
					<dim>3</dim>
				</port>
			</input>
			<output>
				<port id="2" precision="FP32" names="/model1/encoder/layers.0/self_attn/Transpose_3_output_0">
					<dim>61</dim>
					<dim>1</dim>
					<dim>42</dim>
				</port>
			</output>
		</layer>
		<layer id="101" name="Constant_10936" type="Const" version="opset1">
			<data element_type="i64" shape="4" offset="16414" size="32" />
			<rt_info>
				<attribute name="precise" version="0" />
			</rt_info>
			<output>
				<port id="0" precision="I64">
					<dim>4</dim>
				</port>
			</output>
		</layer>
		<layer id="102" name="/model1/encoder/layers.0/self_attn/Reshape_8" type="Reshape" version="opset1">
			<data special_zero="true" />
			<input>
				<port id="0" precision="FP32">
					<dim>61</dim>
					<dim>1</dim>
					<dim>42</dim>
				</port>
				<port id="1" precision="I64">
					<dim>4</dim>
				</port>
			</input>
			<output>
				<port id="2" precision="FP32" names="/model1/encoder/layers.0/self_attn/Reshape_8_output_0">
					<dim>61</dim>
					<dim>1</dim>
					<dim>1</dim>
					<dim>42</dim>
				</port>
			</output>
		</layer>
		<layer id="103" name="/model1/encoder/layers.0/self_attn/MatMul_2" type="MatMul" version="opset1">
			<data transpose_a="false" transpose_b="false" />
			<input>
				<port id="0" precision="FP32">
					<dim>61</dim>
					<dim>1</dim>
					<dim>1</dim>
					<dim>1</dim>
				</port>
				<port id="1" precision="FP32">
					<dim>61</dim>
					<dim>1</dim>
					<dim>1</dim>
					<dim>42</dim>
				</port>
			</input>
			<output>
				<port id="2" precision="FP32" names="/model1/encoder/layers.0/self_attn/MatMul_2_output_0">
					<dim>61</dim>
					<dim>1</dim>
					<dim>1</dim>
					<dim>42</dim>
				</port>
			</output>
		</layer>
		<layer id="104" name="Constant_589" type="Const" version="opset1">
			<data element_type="i64" shape="4" offset="16244" size="32" />
			<output>
				<port id="0" precision="I64">
					<dim>4</dim>
				</port>
			</output>
		</layer>
		<layer id="105" name="/model1/encoder/layers.0/self_attn/Transpose_5" type="Transpose" version="opset1">
			<input>
				<port id="0" precision="FP32">
					<dim>61</dim>
					<dim>1</dim>
					<dim>1</dim>
					<dim>42</dim>
				</port>
				<port id="1" precision="I64">
					<dim>4</dim>
				</port>
			</input>
			<output>
				<port id="2" precision="FP32" names="/model1/encoder/layers.0/self_attn/Transpose_5_output_0">
					<dim>1</dim>
					<dim>61</dim>
					<dim>1</dim>
					<dim>42</dim>
				</port>
			</output>
		</layer>
		<layer id="106" name="Concat_4138" type="Const" version="opset1">
			<data element_type="i64" shape="2" offset="16478" size="16" />
			<rt_info>
				<attribute name="precise" version="0" />
			</rt_info>
			<output>
				<port id="0" precision="I64">
					<dim>2</dim>
				</port>
			</output>
		</layer>
		<layer id="107" name="/model1/encoder/layers.0/self_attn/Reshape_9" type="Reshape" version="opset1">
			<data special_zero="true" />
			<input>
				<port id="0" precision="FP32">
					<dim>1</dim>
					<dim>61</dim>
					<dim>1</dim>
					<dim>42</dim>
				</port>
				<port id="1" precision="I64">
					<dim>2</dim>
				</port>
			</input>
			<output>
				<port id="2" precision="FP32" names="/model1/encoder/layers.0/self_attn/Reshape_9_output_0">
					<dim>61</dim>
					<dim>42</dim>
				</port>
			</output>
		</layer>
		<layer id="108" name="model1.encoder.layers.0.self_attn.out_proj.weight_compressed" type="Const" version="opset1">
			<data element_type="f16" shape="42, 42" offset="16494" size="3528" />
			<output>
				<port id="0" precision="FP16">
					<dim>42</dim>
					<dim>42</dim>
				</port>
			</output>
		</layer>
		<layer id="109" name="model1.encoder.layers.0.self_attn.out_proj.weight" type="Convert" version="opset1">
			<data destination_type="f32" />
			<rt_info>
				<attribute name="decompression" version="0" />
			</rt_info>
			<input>
				<port id="0" precision="FP16">
					<dim>42</dim>
					<dim>42</dim>
				</port>
			</input>
			<output>
				<port id="1" precision="FP32" names="model1.encoder.layers.0.self_attn.out_proj.weight">
					<dim>42</dim>
					<dim>42</dim>
				</port>
			</output>
		</layer>
		<layer id="110" name="/model1/encoder/layers.0/self_attn/Gemm/WithoutBiases" type="MatMul" version="opset1">
			<data transpose_a="false" transpose_b="true" />
			<input>
				<port id="0" precision="FP32">
					<dim>61</dim>
					<dim>42</dim>
				</port>
				<port id="1" precision="FP32">
					<dim>42</dim>
					<dim>42</dim>
				</port>
			</input>
			<output>
				<port id="2" precision="FP32">
					<dim>61</dim>
					<dim>42</dim>
				</port>
			</output>
		</layer>
		<layer id="111" name="Constant_10156_compressed" type="Const" version="opset1">
			<data element_type="f16" shape="1, 42" offset="20022" size="84" />
			<output>
				<port id="0" precision="FP16">
					<dim>1</dim>
					<dim>42</dim>
				</port>
			</output>
		</layer>
		<layer id="112" name="Constant_10156" type="Convert" version="opset1">
			<data destination_type="f32" />
			<rt_info>
				<attribute name="decompression" version="0" />
			</rt_info>
			<input>
				<port id="0" precision="FP16">
					<dim>1</dim>
					<dim>42</dim>
				</port>
			</input>
			<output>
				<port id="1" precision="FP32">
					<dim>1</dim>
					<dim>42</dim>
				</port>
			</output>
		</layer>
		<layer id="113" name="/model1/encoder/layers.0/self_attn/Gemm" type="Add" version="opset1">
			<data auto_broadcast="numpy" />
			<input>
				<port id="0" precision="FP32">
					<dim>61</dim>
					<dim>42</dim>
				</port>
				<port id="1" precision="FP32">
					<dim>1</dim>
					<dim>42</dim>
				</port>
			</input>
			<output>
				<port id="2" precision="FP32" names="/model1/encoder/layers.0/self_attn/Gemm_output_0">
					<dim>61</dim>
					<dim>42</dim>
				</port>
			</output>
		</layer>
		<layer id="114" name="/model1/encoder/layers.0/self_attn/Shape_3" type="ShapeOf" version="opset3">
			<data output_type="i64" />
			<input>
				<port id="0" precision="FP32">
					<dim>1</dim>
					<dim>61</dim>
					<dim>42</dim>
				</port>
			</input>
			<output>
				<port id="1" precision="I64" names="/model1/encoder/layers.0/self_attn/Concat_2_output_0,/model1/encoder/layers.0/self_attn/Concat_9_output_0,/model1/encoder/layers.0/self_attn/Shape_1_output_0,/model1/encoder/layers.0/self_attn/Shape_2_output_0,/model1/encoder/layers.0/self_attn/Shape_3_output_0,/model1/encoder/layers.0/self_attn/Shape_output_0">
					<dim>3</dim>
				</port>
			</output>
		</layer>
		<layer id="115" name="/model1/encoder/layers.0/self_attn/Reshape_10" type="Reshape" version="opset1">
			<data special_zero="true" />
			<input>
				<port id="0" precision="FP32">
					<dim>61</dim>
					<dim>42</dim>
				</port>
				<port id="1" precision="I64">
					<dim>3</dim>
				</port>
			</input>
			<output>
				<port id="2" precision="FP32" names="/model1/encoder/layers.0/self_attn/Reshape_10_output_0">
					<dim>1</dim>
					<dim>61</dim>
					<dim>42</dim>
				</port>
			</output>
		</layer>
		<layer id="116" name="/model1/encoder/layers.0/Add" type="Add" version="opset1">
			<data auto_broadcast="numpy" />
			<input>
				<port id="0" precision="FP32">
					<dim>1</dim>
					<dim>61</dim>
					<dim>42</dim>
				</port>
				<port id="1" precision="FP32">
					<dim>1</dim>
					<dim>61</dim>
					<dim>42</dim>
				</port>
			</input>
			<output>
				<port id="2" precision="FP32" names="/model1/encoder/layers.0/Add_output_0">
					<dim>1</dim>
					<dim>61</dim>
					<dim>42</dim>
				</port>
			</output>
		</layer>
		<layer id="117" name="Constant_617" type="Const" version="opset1">
			<data element_type="i64" shape="1" offset="5156" size="8" />
			<output>
				<port id="0" precision="I64">
					<dim>1</dim>
				</port>
			</output>
		</layer>
		<layer id="118" name="/model1/encoder/layers.0/norm1/Div" type="MVN" version="opset6">
			<data eps="9.9999997473787516e-06" normalize_variance="true" eps_mode="INSIDE_SQRT" />
			<input>
				<port id="0" precision="FP32">
					<dim>1</dim>
					<dim>61</dim>
					<dim>42</dim>
				</port>
				<port id="1" precision="I64">
					<dim>1</dim>
				</port>
			</input>
			<output>
				<port id="2" precision="FP32" names="/model1/encoder/layers.0/norm1/Div_output_0">
					<dim>1</dim>
					<dim>61</dim>
					<dim>42</dim>
				</port>
			</output>
		</layer>
		<layer id="119" name="Constant_10157_compressed" type="Const" version="opset1">
			<data element_type="f16" shape="1, 1, 42" offset="20106" size="84" />
			<output>
				<port id="0" precision="FP16">
					<dim>1</dim>
					<dim>1</dim>
					<dim>42</dim>
				</port>
			</output>
		</layer>
		<layer id="120" name="Constant_10157" type="Convert" version="opset1">
			<data destination_type="f32" />
			<rt_info>
				<attribute name="decompression" version="0" />
			</rt_info>
			<input>
				<port id="0" precision="FP16">
					<dim>1</dim>
					<dim>1</dim>
					<dim>42</dim>
				</port>
			</input>
			<output>
				<port id="1" precision="FP32">
					<dim>1</dim>
					<dim>1</dim>
					<dim>42</dim>
				</port>
			</output>
		</layer>
		<layer id="121" name="/model1/encoder/layers.0/norm1/Mul" type="Multiply" version="opset1">
			<data auto_broadcast="numpy" />
			<input>
				<port id="0" precision="FP32">
					<dim>1</dim>
					<dim>61</dim>
					<dim>42</dim>
				</port>
				<port id="1" precision="FP32">
					<dim>1</dim>
					<dim>1</dim>
					<dim>42</dim>
				</port>
			</input>
			<output>
				<port id="2" precision="FP32" names="/model1/encoder/layers.0/norm1/Mul_output_0">
					<dim>1</dim>
					<dim>61</dim>
					<dim>42</dim>
				</port>
			</output>
		</layer>
		<layer id="122" name="Constant_10158_compressed" type="Const" version="opset1">
			<data element_type="f16" shape="1, 1, 42" offset="20190" size="84" />
			<output>
				<port id="0" precision="FP16">
					<dim>1</dim>
					<dim>1</dim>
					<dim>42</dim>
				</port>
			</output>
		</layer>
		<layer id="123" name="Constant_10158" type="Convert" version="opset1">
			<data destination_type="f32" />
			<rt_info>
				<attribute name="decompression" version="0" />
			</rt_info>
			<input>
				<port id="0" precision="FP16">
					<dim>1</dim>
					<dim>1</dim>
					<dim>42</dim>
				</port>
			</input>
			<output>
				<port id="1" precision="FP32">
					<dim>1</dim>
					<dim>1</dim>
					<dim>42</dim>
				</port>
			</output>
		</layer>
		<layer id="124" name="/model1/encoder/layers.0/norm1/Add_1" type="Add" version="opset1">
			<data auto_broadcast="numpy" />
			<input>
				<port id="0" precision="FP32">
					<dim>1</dim>
					<dim>61</dim>
					<dim>42</dim>
				</port>
				<port id="1" precision="FP32">
					<dim>1</dim>
					<dim>1</dim>
					<dim>42</dim>
				</port>
			</input>
			<output>
				<port id="2" precision="FP32" names="/model1/encoder/layers.0/norm1/Add_1_output_0">
					<dim>1</dim>
					<dim>61</dim>
					<dim>42</dim>
				</port>
			</output>
		</layer>
		<layer id="125" name="Constant_10160_compressed" type="Const" version="opset1">
			<data element_type="f16" shape="1, 1, 42" offset="20274" size="84" />
			<output>
				<port id="0" precision="FP16">
					<dim>1</dim>
					<dim>1</dim>
					<dim>42</dim>
				</port>
			</output>
		</layer>
		<layer id="126" name="Constant_10160" type="Convert" version="opset1">
			<data destination_type="f32" />
			<rt_info>
				<attribute name="decompression" version="0" />
			</rt_info>
			<input>
				<port id="0" precision="FP16">
					<dim>1</dim>
					<dim>1</dim>
					<dim>42</dim>
				</port>
			</input>
			<output>
				<port id="1" precision="FP32">
					<dim>1</dim>
					<dim>1</dim>
					<dim>42</dim>
				</port>
			</output>
		</layer>
		<layer id="127" name="Constant_10159_compressed" type="Const" version="opset1">
			<data element_type="f16" shape="1, 1, 2048" offset="20358" size="4096" />
			<output>
				<port id="0" precision="FP16">
					<dim>1</dim>
					<dim>1</dim>
					<dim>2048</dim>
				</port>
			</output>
		</layer>
		<layer id="128" name="Constant_10159" type="Convert" version="opset1">
			<data destination_type="f32" />
			<rt_info>
				<attribute name="decompression" version="0" />
			</rt_info>
			<input>
				<port id="0" precision="FP16">
					<dim>1</dim>
					<dim>1</dim>
					<dim>2048</dim>
				</port>
			</input>
			<output>
				<port id="1" precision="FP32">
					<dim>1</dim>
					<dim>1</dim>
					<dim>2048</dim>
				</port>
			</output>
		</layer>
		<layer id="129" name="Transpose_9798_compressed" type="Const" version="opset1">
			<data element_type="f16" shape="2048, 42" offset="24454" size="172032" />
			<output>
				<port id="0" precision="FP16">
					<dim>2048</dim>
					<dim>42</dim>
				</port>
			</output>
		</layer>
		<layer id="130" name="Transpose_9798" type="Convert" version="opset1">
			<data destination_type="f32" />
			<rt_info>
				<attribute name="decompression" version="0" />
			</rt_info>
			<input>
				<port id="0" precision="FP16">
					<dim>2048</dim>
					<dim>42</dim>
				</port>
			</input>
			<output>
				<port id="1" precision="FP32">
					<dim>2048</dim>
					<dim>42</dim>
				</port>
			</output>
		</layer>
		<layer id="131" name="/model1/encoder/layers.0/linear1/MatMul" type="MatMul" version="opset1">
			<data transpose_a="false" transpose_b="true" />
			<input>
				<port id="0" precision="FP32">
					<dim>1</dim>
					<dim>61</dim>
					<dim>42</dim>
				</port>
				<port id="1" precision="FP32">
					<dim>2048</dim>
					<dim>42</dim>
				</port>
			</input>
			<output>
				<port id="2" precision="FP32" names="/model1/encoder/layers.0/linear1/MatMul_output_0">
					<dim>1</dim>
					<dim>61</dim>
					<dim>2048</dim>
				</port>
			</output>
		</layer>
		<layer id="132" name="/model1/encoder/layers.0/linear1/Add" type="Add" version="opset1">
			<data auto_broadcast="numpy" />
			<input>
				<port id="0" precision="FP32">
					<dim>1</dim>
					<dim>1</dim>
					<dim>2048</dim>
				</port>
				<port id="1" precision="FP32">
					<dim>1</dim>
					<dim>61</dim>
					<dim>2048</dim>
				</port>
			</input>
			<output>
				<port id="2" precision="FP32" names="/model1/encoder/layers.0/linear1/Add_output_0">
					<dim>1</dim>
					<dim>61</dim>
					<dim>2048</dim>
				</port>
			</output>
		</layer>
		<layer id="133" name="/model1/encoder/layers.0/Relu" type="ReLU" version="opset1">
			<input>
				<port id="0" precision="FP32">
					<dim>1</dim>
					<dim>61</dim>
					<dim>2048</dim>
				</port>
			</input>
			<output>
				<port id="1" precision="FP32" names="/model1/encoder/layers.0/Relu_output_0">
					<dim>1</dim>
					<dim>61</dim>
					<dim>2048</dim>
				</port>
			</output>
		</layer>
		<layer id="134" name="Transpose_9805_compressed" type="Const" version="opset1">
			<data element_type="f16" shape="42, 2048" offset="196486" size="172032" />
			<output>
				<port id="0" precision="FP16">
					<dim>42</dim>
					<dim>2048</dim>
				</port>
			</output>
		</layer>
		<layer id="135" name="Transpose_9805" type="Convert" version="opset1">
			<data destination_type="f32" />
			<rt_info>
				<attribute name="decompression" version="0" />
			</rt_info>
			<input>
				<port id="0" precision="FP16">
					<dim>42</dim>
					<dim>2048</dim>
				</port>
			</input>
			<output>
				<port id="1" precision="FP32">
					<dim>42</dim>
					<dim>2048</dim>
				</port>
			</output>
		</layer>
		<layer id="136" name="/model1/encoder/layers.0/linear2/MatMul" type="MatMul" version="opset1">
			<data transpose_a="false" transpose_b="true" />
			<input>
				<port id="0" precision="FP32">
					<dim>1</dim>
					<dim>61</dim>
					<dim>2048</dim>
				</port>
				<port id="1" precision="FP32">
					<dim>42</dim>
					<dim>2048</dim>
				</port>
			</input>
			<output>
				<port id="2" precision="FP32" names="/model1/encoder/layers.0/linear2/MatMul_output_0">
					<dim>1</dim>
					<dim>61</dim>
					<dim>42</dim>
				</port>
			</output>
		</layer>
		<layer id="137" name="/model1/encoder/layers.0/linear2/Add" type="Add" version="opset1">
			<data auto_broadcast="numpy" />
			<input>
				<port id="0" precision="FP32">
					<dim>1</dim>
					<dim>1</dim>
					<dim>42</dim>
				</port>
				<port id="1" precision="FP32">
					<dim>1</dim>
					<dim>61</dim>
					<dim>42</dim>
				</port>
			</input>
			<output>
				<port id="2" precision="FP32" names="/model1/encoder/layers.0/linear2/Add_output_0">
					<dim>1</dim>
					<dim>61</dim>
					<dim>42</dim>
				</port>
			</output>
		</layer>
		<layer id="138" name="/model1/encoder/layers.0/Add_1" type="Add" version="opset1">
			<data auto_broadcast="numpy" />
			<input>
				<port id="0" precision="FP32">
					<dim>1</dim>
					<dim>61</dim>
					<dim>42</dim>
				</port>
				<port id="1" precision="FP32">
					<dim>1</dim>
					<dim>61</dim>
					<dim>42</dim>
				</port>
			</input>
			<output>
				<port id="2" precision="FP32" names="/model1/encoder/layers.0/Add_1_output_0">
					<dim>1</dim>
					<dim>61</dim>
					<dim>42</dim>
				</port>
			</output>
		</layer>
		<layer id="139" name="Constant_636" type="Const" version="opset1">
			<data element_type="i64" shape="1" offset="5156" size="8" />
			<output>
				<port id="0" precision="I64">
					<dim>1</dim>
				</port>
			</output>
		</layer>
		<layer id="140" name="/model1/encoder/layers.0/norm2/Div" type="MVN" version="opset6">
			<data eps="9.9999997473787516e-06" normalize_variance="true" eps_mode="INSIDE_SQRT" />
			<input>
				<port id="0" precision="FP32">
					<dim>1</dim>
					<dim>61</dim>
					<dim>42</dim>
				</port>
				<port id="1" precision="I64">
					<dim>1</dim>
				</port>
			</input>
			<output>
				<port id="2" precision="FP32" names="/model1/encoder/layers.0/norm2/Div_output_0">
					<dim>1</dim>
					<dim>61</dim>
					<dim>42</dim>
				</port>
			</output>
		</layer>
		<layer id="141" name="Constant_10161_compressed" type="Const" version="opset1">
			<data element_type="f16" shape="1, 1, 42" offset="368518" size="84" />
			<output>
				<port id="0" precision="FP16">
					<dim>1</dim>
					<dim>1</dim>
					<dim>42</dim>
				</port>
			</output>
		</layer>
		<layer id="142" name="Constant_10161" type="Convert" version="opset1">
			<data destination_type="f32" />
			<rt_info>
				<attribute name="decompression" version="0" />
			</rt_info>
			<input>
				<port id="0" precision="FP16">
					<dim>1</dim>
					<dim>1</dim>
					<dim>42</dim>
				</port>
			</input>
			<output>
				<port id="1" precision="FP32">
					<dim>1</dim>
					<dim>1</dim>
					<dim>42</dim>
				</port>
			</output>
		</layer>
		<layer id="143" name="/model1/encoder/layers.0/norm2/Mul" type="Multiply" version="opset1">
			<data auto_broadcast="numpy" />
			<input>
				<port id="0" precision="FP32">
					<dim>1</dim>
					<dim>61</dim>
					<dim>42</dim>
				</port>
				<port id="1" precision="FP32">
					<dim>1</dim>
					<dim>1</dim>
					<dim>42</dim>
				</port>
			</input>
			<output>
				<port id="2" precision="FP32" names="/model1/encoder/layers.0/norm2/Mul_output_0">
					<dim>1</dim>
					<dim>61</dim>
					<dim>42</dim>
				</port>
			</output>
		</layer>
		<layer id="144" name="Constant_10162_compressed" type="Const" version="opset1">
			<data element_type="f16" shape="1, 1, 42" offset="368602" size="84" />
			<output>
				<port id="0" precision="FP16">
					<dim>1</dim>
					<dim>1</dim>
					<dim>42</dim>
				</port>
			</output>
		</layer>
		<layer id="145" name="Constant_10162" type="Convert" version="opset1">
			<data destination_type="f32" />
			<rt_info>
				<attribute name="decompression" version="0" />
			</rt_info>
			<input>
				<port id="0" precision="FP16">
					<dim>1</dim>
					<dim>1</dim>
					<dim>42</dim>
				</port>
			</input>
			<output>
				<port id="1" precision="FP32">
					<dim>1</dim>
					<dim>1</dim>
					<dim>42</dim>
				</port>
			</output>
		</layer>
		<layer id="146" name="/model1/encoder/layers.0/norm2/Add_1" type="Add" version="opset1">
			<data auto_broadcast="numpy" />
			<input>
				<port id="0" precision="FP32">
					<dim>1</dim>
					<dim>61</dim>
					<dim>42</dim>
				</port>
				<port id="1" precision="FP32">
					<dim>1</dim>
					<dim>1</dim>
					<dim>42</dim>
				</port>
			</input>
			<output>
				<port id="2" precision="FP32" names="/model1/encoder/layers.0/norm2/Add_1_output_0">
					<dim>1</dim>
					<dim>61</dim>
					<dim>42</dim>
				</port>
			</output>
		</layer>
		<layer id="147" name="Constant_649" type="Const" version="opset1">
			<data element_type="i64" shape="1" offset="5140" size="8" />
			<output>
				<port id="0" precision="I64">
					<dim>1</dim>
				</port>
			</output>
		</layer>
		<layer id="148" name="/model1/ReduceMean" type="ReduceMean" version="opset1">
			<data keep_dims="false" />
			<input>
				<port id="0" precision="FP32">
					<dim>1</dim>
					<dim>61</dim>
					<dim>42</dim>
				</port>
				<port id="1" precision="I64">
					<dim>1</dim>
				</port>
			</input>
			<output>
				<port id="2" precision="FP32" names="/model1/ReduceMean_output_0">
					<dim>1</dim>
					<dim>42</dim>
				</port>
			</output>
		</layer>
		<layer id="149" name="model1.linear.weight_compressed" type="Const" version="opset1">
			<data element_type="f16" shape="7, 42" offset="368686" size="588" />
			<output>
				<port id="0" precision="FP16">
					<dim>7</dim>
					<dim>42</dim>
				</port>
			</output>
		</layer>
		<layer id="150" name="model1.linear.weight" type="Convert" version="opset1">
			<data destination_type="f32" />
			<rt_info>
				<attribute name="decompression" version="0" />
			</rt_info>
			<input>
				<port id="0" precision="FP16">
					<dim>7</dim>
					<dim>42</dim>
				</port>
			</input>
			<output>
				<port id="1" precision="FP32" names="model1.linear.weight">
					<dim>7</dim>
					<dim>42</dim>
				</port>
			</output>
		</layer>
		<layer id="151" name="/model1/linear/Gemm/WithoutBiases" type="MatMul" version="opset1">
			<data transpose_a="false" transpose_b="true" />
			<input>
				<port id="0" precision="FP32">
					<dim>1</dim>
					<dim>42</dim>
				</port>
				<port id="1" precision="FP32">
					<dim>7</dim>
					<dim>42</dim>
				</port>
			</input>
			<output>
				<port id="2" precision="FP32">
					<dim>1</dim>
					<dim>7</dim>
				</port>
			</output>
		</layer>
		<layer id="152" name="Constant_10163_compressed" type="Const" version="opset1">
			<data element_type="f16" shape="1, 7" offset="369274" size="14" />
			<output>
				<port id="0" precision="FP16">
					<dim>1</dim>
					<dim>7</dim>
				</port>
			</output>
		</layer>
		<layer id="153" name="Constant_10163" type="Convert" version="opset1">
			<data destination_type="f32" />
			<rt_info>
				<attribute name="decompression" version="0" />
			</rt_info>
			<input>
				<port id="0" precision="FP16">
					<dim>1</dim>
					<dim>7</dim>
				</port>
			</input>
			<output>
				<port id="1" precision="FP32">
					<dim>1</dim>
					<dim>7</dim>
				</port>
			</output>
		</layer>
		<layer id="154" name="/model1/linear/Gemm" type="Add" version="opset1">
			<data auto_broadcast="numpy" />
			<input>
				<port id="0" precision="FP32">
					<dim>1</dim>
					<dim>7</dim>
				</port>
				<port id="1" precision="FP32">
					<dim>1</dim>
					<dim>7</dim>
				</port>
			</input>
			<output>
				<port id="2" precision="FP32" names="/model1/linear/Gemm_output_0">
					<dim>1</dim>
					<dim>7</dim>
				</port>
			</output>
		</layer>
		<layer id="155" name="onnx::Expand_976_compressed" type="Const" version="opset1">
			<data element_type="f16" shape="1, 61, 42" offset="369288" size="5124" />
			<output>
				<port id="0" precision="FP16">
					<dim>1</dim>
					<dim>61</dim>
					<dim>42</dim>
				</port>
			</output>
		</layer>
		<layer id="156" name="onnx::Expand_976" type="Convert" version="opset1">
			<data destination_type="f32" />
			<rt_info>
				<attribute name="decompression" version="0" />
			</rt_info>
			<input>
				<port id="0" precision="FP16">
					<dim>1</dim>
					<dim>61</dim>
					<dim>42</dim>
				</port>
			</input>
			<output>
				<port id="1" precision="FP32" names="onnx::Expand_976">
					<dim>1</dim>
					<dim>61</dim>
					<dim>42</dim>
				</port>
			</output>
		</layer>
		<layer id="157" name="/model2/Expand_1" type="Broadcast" version="opset3">
			<data mode="bidirectional" />
			<input>
				<port id="0" precision="FP32">
					<dim>1</dim>
					<dim>61</dim>
					<dim>42</dim>
				</port>
				<port id="1" precision="I64">
					<dim>3</dim>
				</port>
			</input>
			<output>
				<port id="2" precision="FP32" names="/model2/Expand_1_output_0">
					<dim>1</dim>
					<dim>61</dim>
					<dim>42</dim>
				</port>
			</output>
		</layer>
		<layer id="158" name="/model2/Constant_19" type="Const" version="opset1">
			<data element_type="i64" shape="1" offset="5124" size="8" />
			<output>
				<port id="0" precision="I64" names="/model2/Constant_19_output_0">
					<dim>1</dim>
				</port>
			</output>
		</layer>
		<layer id="159" name="/model2/Constant_21" type="Const" version="opset1">
			<data element_type="i64" shape="1" offset="5140" size="8" />
			<output>
				<port id="0" precision="I64" names="/model2/Constant_21_output_0">
					<dim>1</dim>
				</port>
			</output>
		</layer>
		<layer id="160" name="/model2/Constant_18" type="Const" version="opset1">
			<data element_type="i64" shape="1" offset="5140" size="8" />
			<output>
				<port id="0" precision="I64" names="/model2/Constant_18_output_0">
					<dim>1</dim>
				</port>
			</output>
		</layer>
		<layer id="161" name="/model2/Slice" type="Slice" version="opset8">
			<input>
				<port id="0" precision="FP32">
					<dim>1</dim>
					<dim>61</dim>
					<dim>42</dim>
				</port>
				<port id="1" precision="I64">
					<dim>1</dim>
				</port>
				<port id="2" precision="I64">
					<dim>1</dim>
				</port>
				<port id="3" precision="I64">
					<dim>1</dim>
				</port>
				<port id="4" precision="I64">
					<dim>1</dim>
				</port>
			</input>
			<output>
				<port id="5" precision="FP32" names="/model2/Slice_output_0">
					<dim>1</dim>
					<dim>61</dim>
					<dim>42</dim>
				</port>
			</output>
		</layer>
		<layer id="162" name="onnx::Expand_968_compressed" type="Const" version="opset1">
			<data element_type="f16" shape="1, 42" offset="374412" size="84" />
			<output>
				<port id="0" precision="FP16">
					<dim>1</dim>
					<dim>42</dim>
				</port>
			</output>
		</layer>
		<layer id="163" name="onnx::Expand_968" type="Convert" version="opset1">
			<data destination_type="f32" />
			<rt_info>
				<attribute name="decompression" version="0" />
			</rt_info>
			<input>
				<port id="0" precision="FP16">
					<dim>1</dim>
					<dim>42</dim>
				</port>
			</input>
			<output>
				<port id="1" precision="FP32" names="onnx::Expand_968">
					<dim>1</dim>
					<dim>42</dim>
				</port>
			</output>
		</layer>
		<layer id="164" name="/model2/Expand" type="Broadcast" version="opset3">
			<data mode="bidirectional" />
			<input>
				<port id="0" precision="FP32">
					<dim>1</dim>
					<dim>42</dim>
				</port>
				<port id="1" precision="I64">
					<dim>2</dim>
				</port>
			</input>
			<output>
				<port id="2" precision="FP32" names="/model2/Expand_output_0">
					<dim>1</dim>
					<dim>42</dim>
				</port>
			</output>
		</layer>
		<layer id="165" name="Constant_10937" type="Const" version="opset1">
			<data element_type="i64" shape="3" offset="5328" size="24" />
			<rt_info>
				<attribute name="precise" version="0" />
			</rt_info>
			<output>
				<port id="0" precision="I64">
					<dim>3</dim>
				</port>
			</output>
		</layer>
		<layer id="166" name="/model2/Reshape_2" type="Reshape" version="opset1">
			<data special_zero="true" />
			<input>
				<port id="0" precision="FP32">
					<dim>1</dim>
					<dim>42</dim>
				</port>
				<port id="1" precision="I64">
					<dim>3</dim>
				</port>
			</input>
			<output>
				<port id="2" precision="FP32" names="/model2/Reshape_2_output_0">
					<dim>1</dim>
					<dim>1</dim>
					<dim>42</dim>
				</port>
			</output>
		</layer>
		<layer id="167" name="/Constant_8" type="Const" version="opset1">
			<data element_type="i64" shape="1" offset="5132" size="8" />
			<output>
				<port id="0" precision="I64" names="/Constant_8_output_0">
					<dim>1</dim>
				</port>
			</output>
		</layer>
		<layer id="168" name="/Constant_9" type="Const" version="opset1">
			<data element_type="i64" shape="1" offset="16358" size="8" />
			<output>
				<port id="0" precision="I64" names="/Constant_9_output_0">
					<dim>1</dim>
				</port>
			</output>
		</layer>
		<layer id="169" name="/Constant_10" type="Const" version="opset1">
			<data element_type="i64" shape="1" offset="5140" size="8" />
			<output>
				<port id="0" precision="I64" names="/Constant_10_output_0">
					<dim>1</dim>
				</port>
			</output>
		</layer>
		<layer id="170" name="/Constant_7" type="Const" version="opset1">
			<data element_type="i64" shape="1" offset="5148" size="8" />
			<output>
				<port id="0" precision="I64" names="/Constant_7_output_0">
					<dim>1</dim>
				</port>
			</output>
		</layer>
		<layer id="171" name="/Slice_1" type="Slice" version="opset8">
			<input>
				<port id="0" precision="FP32">
					<dim>1</dim>
					<dim>60</dim>
					<dim>42</dim>
					<dim>2</dim>
				</port>
				<port id="1" precision="I64">
					<dim>1</dim>
				</port>
				<port id="2" precision="I64">
					<dim>1</dim>
				</port>
				<port id="3" precision="I64">
					<dim>1</dim>
				</port>
				<port id="4" precision="I64">
					<dim>1</dim>
				</port>
			</input>
			<output>
				<port id="5" precision="FP32" names="/Slice_1_output_0">
					<dim>1</dim>
					<dim>60</dim>
					<dim>21</dim>
					<dim>2</dim>
				</port>
			</output>
		</layer>
		<layer id="172" name="Constant_10938" type="Const" version="opset1">
			<data element_type="i64" shape="3" offset="5352" size="24" />
			<rt_info>
				<attribute name="precise" version="0" />
			</rt_info>
			<output>
				<port id="0" precision="I64">
					<dim>3</dim>
				</port>
			</output>
		</layer>
		<layer id="173" name="/model2/Reshape" type="Reshape" version="opset1">
			<data special_zero="true" />
			<input>
				<port id="0" precision="FP32">
					<dim>1</dim>
					<dim>60</dim>
					<dim>21</dim>
					<dim>2</dim>
				</port>
				<port id="1" precision="I64">
					<dim>3</dim>
				</port>
			</input>
			<output>
				<port id="2" precision="FP32" names="/model2/Reshape_output_0">
					<dim>1</dim>
					<dim>60</dim>
					<dim>42</dim>
				</port>
			</output>
		</layer>
		<layer id="174" name="/model2/Concat_3" type="Concat" version="opset1">
			<data axis="1" />
			<input>
				<port id="0" precision="FP32">
					<dim>1</dim>
					<dim>1</dim>
					<dim>42</dim>
				</port>
				<port id="1" precision="FP32">
					<dim>1</dim>
					<dim>60</dim>
					<dim>42</dim>
				</port>
			</input>
			<output>
				<port id="2" precision="FP32" names="/model2/Concat_3_output_0">
					<dim>1</dim>
					<dim>61</dim>
					<dim>42</dim>
				</port>
			</output>
		</layer>
		<layer id="175" name="/model2/Add_1" type="Add" version="opset1">
			<data auto_broadcast="numpy" />
			<input>
				<port id="0" precision="FP32">
					<dim>1</dim>
					<dim>61</dim>
					<dim>42</dim>
				</port>
				<port id="1" precision="FP32">
					<dim>1</dim>
					<dim>61</dim>
					<dim>42</dim>
				</port>
			</input>
			<output>
				<port id="2" precision="FP32" names="/model2/Add_1_output_0">
					<dim>1</dim>
					<dim>61</dim>
					<dim>42</dim>
				</port>
			</output>
		</layer>
		<layer id="176" name="Constant_10164_compressed" type="Const" version="opset1">
			<data element_type="f16" shape="1, 1, 126" offset="374496" size="252" />
			<output>
				<port id="0" precision="FP16">
					<dim>1</dim>
					<dim>1</dim>
					<dim>126</dim>
				</port>
			</output>
		</layer>
		<layer id="177" name="Constant_10164" type="Convert" version="opset1">
			<data destination_type="f32" />
			<rt_info>
				<attribute name="decompression" version="0" />
			</rt_info>
			<input>
				<port id="0" precision="FP16">
					<dim>1</dim>
					<dim>1</dim>
					<dim>126</dim>
				</port>
			</input>
			<output>
				<port id="1" precision="FP32">
					<dim>1</dim>
					<dim>1</dim>
					<dim>126</dim>
				</port>
			</output>
		</layer>
		<layer id="178" name="Transpose_9831_compressed" type="Const" version="opset1">
			<data element_type="f16" shape="126, 42" offset="374748" size="10584" />
			<output>
				<port id="0" precision="FP16">
					<dim>126</dim>
					<dim>42</dim>
				</port>
			</output>
		</layer>
		<layer id="179" name="Transpose_9831" type="Convert" version="opset1">
			<data destination_type="f32" />
			<rt_info>
				<attribute name="decompression" version="0" />
			</rt_info>
			<input>
				<port id="0" precision="FP16">
					<dim>126</dim>
					<dim>42</dim>
				</port>
			</input>
			<output>
				<port id="1" precision="FP32">
					<dim>126</dim>
					<dim>42</dim>
				</port>
			</output>
		</layer>
		<layer id="180" name="/model2/encoder/layers.0/self_attn/MatMul" type="MatMul" version="opset1">
			<data transpose_a="false" transpose_b="true" />
			<input>
				<port id="0" precision="FP32">
					<dim>1</dim>
					<dim>61</dim>
					<dim>42</dim>
				</port>
				<port id="1" precision="FP32">
					<dim>126</dim>
					<dim>42</dim>
				</port>
			</input>
			<output>
				<port id="2" precision="FP32" names="/model2/encoder/layers.0/self_attn/MatMul_output_0">
					<dim>1</dim>
					<dim>61</dim>
					<dim>126</dim>
				</port>
			</output>
		</layer>
		<layer id="181" name="/model2/encoder/layers.0/self_attn/Add" type="Add" version="opset1">
			<data auto_broadcast="numpy" />
			<input>
				<port id="0" precision="FP32">
					<dim>1</dim>
					<dim>1</dim>
					<dim>126</dim>
				</port>
				<port id="1" precision="FP32">
					<dim>1</dim>
					<dim>61</dim>
					<dim>126</dim>
				</port>
			</input>
			<output>
				<port id="2" precision="FP32" names="/model2/encoder/layers.0/self_attn/Add_output_0">
					<dim>1</dim>
					<dim>61</dim>
					<dim>126</dim>
				</port>
			</output>
		</layer>
		<layer id="182" name="Constant_10939" type="Const" version="opset1">
			<data element_type="i64" shape="4" offset="16212" size="32" />
			<rt_info>
				<attribute name="precise" version="0" />
			</rt_info>
			<output>
				<port id="0" precision="I64">
					<dim>4</dim>
				</port>
			</output>
		</layer>
		<layer id="183" name="/model2/encoder/layers.0/self_attn/Reshape_2" type="Reshape" version="opset1">
			<data special_zero="true" />
			<input>
				<port id="0" precision="FP32">
					<dim>1</dim>
					<dim>61</dim>
					<dim>126</dim>
				</port>
				<port id="1" precision="I64">
					<dim>4</dim>
				</port>
			</input>
			<output>
				<port id="2" precision="FP32" names="/model2/encoder/layers.0/self_attn/Reshape_2_output_0">
					<dim>1</dim>
					<dim>61</dim>
					<dim>3</dim>
					<dim>42</dim>
				</port>
			</output>
		</layer>
		<layer id="184" name="/model2/encoder/layers.0/self_attn/Constant_16" type="Const" version="opset1">
			<data element_type="i64" shape="1" offset="5124" size="8" />
			<output>
				<port id="0" precision="I64" names="/model2/encoder/layers.0/self_attn/Constant_16_output_0">
					<dim>1</dim>
				</port>
			</output>
		</layer>
		<layer id="185" name="/model2/encoder/layers.0/self_attn/Unsqueeze_1" type="Unsqueeze" version="opset1">
			<input>
				<port id="0" precision="FP32">
					<dim>1</dim>
					<dim>61</dim>
					<dim>3</dim>
					<dim>42</dim>
				</port>
				<port id="1" precision="I64">
					<dim>1</dim>
				</port>
			</input>
			<output>
				<port id="2" precision="FP32" names="/model2/encoder/layers.0/self_attn/Unsqueeze_1_output_0">
					<dim>1</dim>
					<dim>1</dim>
					<dim>61</dim>
					<dim>3</dim>
					<dim>42</dim>
				</port>
			</output>
		</layer>
		<layer id="186" name="Constant_9587" type="Const" version="opset1">
			<data element_type="i64" shape="1" offset="5124" size="8" />
			<output>
				<port id="0" precision="I64">
					<dim>1</dim>
				</port>
			</output>
		</layer>
		<layer id="187" name="Squeeze_9588" type="Squeeze" version="opset1">
			<input>
				<port id="0" precision="FP32">
					<dim>1</dim>
					<dim>1</dim>
					<dim>61</dim>
					<dim>3</dim>
					<dim>42</dim>
				</port>
				<port id="1" precision="I64">
					<dim>1</dim>
				</port>
			</input>
			<output>
				<port id="2" precision="FP32">
					<dim>1</dim>
					<dim>61</dim>
					<dim>3</dim>
					<dim>42</dim>
				</port>
			</output>
		</layer>
		<layer id="188" name="Constant_9589" type="Const" version="opset1">
			<data element_type="i64" shape="4" offset="16244" size="32" />
			<output>
				<port id="0" precision="I64">
					<dim>4</dim>
				</port>
			</output>
		</layer>
		<layer id="189" name="/model2/encoder/layers.0/self_attn/Squeeze_1" type="Transpose" version="opset1">
			<input>
				<port id="0" precision="FP32">
					<dim>1</dim>
					<dim>61</dim>
					<dim>3</dim>
					<dim>42</dim>
				</port>
				<port id="1" precision="I64">
					<dim>4</dim>
				</port>
			</input>
			<output>
				<port id="2" precision="FP32" names="/model2/encoder/layers.0/self_attn/Squeeze_1_output_0">
					<dim>3</dim>
					<dim>1</dim>
					<dim>61</dim>
					<dim>42</dim>
				</port>
			</output>
		</layer>
		<layer id="190" name="Constant_827" type="Const" version="opset1">
			<data element_type="i64" shape="" offset="5124" size="8" />
			<output>
				<port id="0" precision="I64" />
			</output>
		</layer>
		<layer id="191" name="/model2/encoder/layers.0/self_attn/Gather_3" type="Gather" version="opset8">
			<data batch_dims="0" />
			<input>
				<port id="0" precision="FP32">
					<dim>3</dim>
					<dim>1</dim>
					<dim>61</dim>
					<dim>42</dim>
				</port>
				<port id="1" precision="I64" />
				<port id="2" precision="I64" />
			</input>
			<output>
				<port id="3" precision="FP32" names="/model2/encoder/layers.0/self_attn/Gather_3_output_0">
					<dim>1</dim>
					<dim>61</dim>
					<dim>42</dim>
				</port>
			</output>
		</layer>
		<layer id="192" name="Constant_10940" type="Const" version="opset1">
			<data element_type="i64" shape="3" offset="16276" size="24" />
			<rt_info>
				<attribute name="precise" version="0" />
			</rt_info>
			<output>
				<port id="0" precision="I64">
					<dim>3</dim>
				</port>
			</output>
		</layer>
		<layer id="193" name="/model2/encoder/layers.0/self_attn/Reshape_3" type="Reshape" version="opset1">
			<data special_zero="true" />
			<input>
				<port id="0" precision="FP32">
					<dim>1</dim>
					<dim>61</dim>
					<dim>42</dim>
				</port>
				<port id="1" precision="I64">
					<dim>3</dim>
				</port>
			</input>
			<output>
				<port id="2" precision="FP32" names="/model2/encoder/layers.0/self_attn/Reshape_3_output_0">
					<dim>1</dim>
					<dim>61</dim>
					<dim>42</dim>
				</port>
			</output>
		</layer>
		<layer id="194" name="Constant_887" type="Const" version="opset1">
			<data element_type="i64" shape="3" offset="16300" size="24" />
			<output>
				<port id="0" precision="I64">
					<dim>3</dim>
				</port>
			</output>
		</layer>
		<layer id="195" name="/model2/encoder/layers.0/self_attn/Transpose_1" type="Transpose" version="opset1">
			<input>
				<port id="0" precision="FP32">
					<dim>1</dim>
					<dim>61</dim>
					<dim>42</dim>
				</port>
				<port id="1" precision="I64">
					<dim>3</dim>
				</port>
			</input>
			<output>
				<port id="2" precision="FP32" names="/model2/encoder/layers.0/self_attn/Transpose_1_output_0">
					<dim>61</dim>
					<dim>1</dim>
					<dim>42</dim>
				</port>
			</output>
		</layer>
		<layer id="196" name="Constant_10941" type="Const" version="opset1">
			<data element_type="i64" shape="4" offset="16324" size="32" />
			<rt_info>
				<attribute name="precise" version="0" />
			</rt_info>
			<output>
				<port id="0" precision="I64">
					<dim>4</dim>
				</port>
			</output>
		</layer>
		<layer id="197" name="/model2/encoder/layers.0/self_attn/Reshape_6" type="Reshape" version="opset1">
			<data special_zero="true" />
			<input>
				<port id="0" precision="FP32">
					<dim>61</dim>
					<dim>1</dim>
					<dim>42</dim>
				</port>
				<port id="1" precision="I64">
					<dim>4</dim>
				</port>
			</input>
			<output>
				<port id="2" precision="FP32" names="/model2/encoder/layers.0/self_attn/Reshape_6_output_0">
					<dim>61</dim>
					<dim>1</dim>
					<dim>1</dim>
					<dim>42</dim>
				</port>
			</output>
		</layer>
		<layer id="198" name="/model2/encoder/layers.0/self_attn/Constant_26_compressed" type="Const" version="opset1">
			<data element_type="f16" shape="1" offset="16356" size="2" />
			<output>
				<port id="0" precision="FP16">
					<dim>1</dim>
				</port>
			</output>
		</layer>
		<layer id="199" name="/model2/encoder/layers.0/self_attn/Constant_26" type="Convert" version="opset1">
			<data destination_type="f32" />
			<rt_info>
				<attribute name="decompression" version="0" />
			</rt_info>
			<input>
				<port id="0" precision="FP16">
					<dim>1</dim>
				</port>
			</input>
			<output>
				<port id="1" precision="FP32" names="/model2/encoder/layers.0/self_attn/Constant_26_output_0">
					<dim>1</dim>
				</port>
			</output>
		</layer>
		<layer id="200" name="/model2/encoder/layers.0/self_attn/Shape_6" type="ShapeOf" version="opset3">
			<data output_type="i64" />
			<input>
				<port id="0" precision="FP32">
					<dim>61</dim>
					<dim>1</dim>
					<dim>1</dim>
					<dim>42</dim>
				</port>
			</input>
			<output>
				<port id="1" precision="I64" names="/model2/encoder/layers.0/self_attn/Shape_6_output_0">
					<dim>4</dim>
				</port>
			</output>
		</layer>
		<layer id="201" name="/model2/encoder/layers.0/self_attn/Constant_24" type="Const" version="opset1">
			<data element_type="i64" shape="1" offset="5156" size="8" />
			<output>
				<port id="0" precision="I64" names="/model2/encoder/layers.0/self_attn/Constant_24_output_0">
					<dim>1</dim>
				</port>
			</output>
		</layer>
		<layer id="202" name="/model2/encoder/layers.0/self_attn/Constant_25" type="Const" version="opset1">
			<data element_type="i64" shape="1" offset="16358" size="8" />
			<output>
				<port id="0" precision="I64" names="/model2/encoder/layers.0/self_attn/Constant_25_output_0">
					<dim>1</dim>
				</port>
			</output>
		</layer>
		<layer id="203" name="Broadcast_1173" type="Const" version="opset1">
			<data element_type="i64" shape="1" offset="5140" size="8" />
			<output>
				<port id="0" precision="I64">
					<dim>1</dim>
				</port>
			</output>
		</layer>
		<layer id="204" name="Constant_1177" type="Const" version="opset1">
			<data element_type="i64" shape="1" offset="5124" size="8" />
			<output>
				<port id="0" precision="I64">
					<dim>1</dim>
				</port>
			</output>
		</layer>
		<layer id="205" name="/model2/encoder/layers.0/self_attn/Slice_3" type="Slice" version="opset8">
			<input>
				<port id="0" precision="I64">
					<dim>4</dim>
				</port>
				<port id="1" precision="I64">
					<dim>1</dim>
				</port>
				<port id="2" precision="I64">
					<dim>1</dim>
				</port>
				<port id="3" precision="I64">
					<dim>1</dim>
				</port>
				<port id="4" precision="I64">
					<dim>1</dim>
				</port>
			</input>
			<output>
				<port id="5" precision="I64" names="/model2/encoder/layers.0/self_attn/Slice_3_output_0">
					<dim>1</dim>
				</port>
			</output>
		</layer>
		<layer id="206" name="/model2/encoder/layers.0/self_attn/Cast_2" type="Convert" version="opset1">
			<data destination_type="f32" />
			<input>
				<port id="0" precision="I64">
					<dim>1</dim>
				</port>
			</input>
			<output>
				<port id="1" precision="FP32" names="/model2/encoder/layers.0/self_attn/Cast_2_output_0">
					<dim>1</dim>
				</port>
			</output>
		</layer>
		<layer id="207" name="/model2/encoder/layers.0/self_attn/Sqrt" type="Sqrt" version="opset1">
			<input>
				<port id="0" precision="FP32">
					<dim>1</dim>
				</port>
			</input>
			<output>
				<port id="1" precision="FP32" names="/model2/encoder/layers.0/self_attn/Sqrt_output_0">
					<dim>1</dim>
				</port>
			</output>
		</layer>
		<layer id="208" name="/model2/encoder/layers.0/self_attn/Div_1" type="Divide" version="opset1">
			<data auto_broadcast="numpy" m_pythondiv="true" />
			<input>
				<port id="0" precision="FP32">
					<dim>1</dim>
				</port>
				<port id="1" precision="FP32">
					<dim>1</dim>
				</port>
			</input>
			<output>
				<port id="2" precision="FP32" names="/model2/encoder/layers.0/self_attn/Cast_3_output_0,/model2/encoder/layers.0/self_attn/Div_1_output_0">
					<dim>1</dim>
				</port>
			</output>
		</layer>
		<layer id="209" name="/model2/encoder/layers.0/self_attn/Sqrt_1" type="Sqrt" version="opset1">
			<input>
				<port id="0" precision="FP32">
					<dim>1</dim>
				</port>
			</input>
			<output>
				<port id="1" precision="FP32" names="/model2/encoder/layers.0/self_attn/Sqrt_1_output_0,/model2/encoder/layers.0/self_attn/Sqrt_2_output_0">
					<dim>1</dim>
				</port>
			</output>
		</layer>
		<layer id="210" name="/model2/encoder/layers.0/self_attn/Mul" type="Multiply" version="opset1">
			<data auto_broadcast="numpy" />
			<input>
				<port id="0" precision="FP32">
					<dim>61</dim>
					<dim>1</dim>
					<dim>1</dim>
					<dim>42</dim>
				</port>
				<port id="1" precision="FP32">
					<dim>1</dim>
				</port>
			</input>
			<output>
				<port id="2" precision="FP32" names="/model2/encoder/layers.0/self_attn/Mul_output_0">
					<dim>61</dim>
					<dim>1</dim>
					<dim>1</dim>
					<dim>42</dim>
				</port>
			</output>
		</layer>
		<layer id="211" name="Constant_829" type="Const" version="opset1">
			<data element_type="i64" shape="" offset="5124" size="8" />
			<output>
				<port id="0" precision="I64" />
			</output>
		</layer>
		<layer id="212" name="/model2/encoder/layers.0/self_attn/Gather_4" type="Gather" version="opset8">
			<data batch_dims="0" />
			<input>
				<port id="0" precision="FP32">
					<dim>3</dim>
					<dim>1</dim>
					<dim>61</dim>
					<dim>42</dim>
				</port>
				<port id="1" precision="I64" />
				<port id="2" precision="I64" />
			</input>
			<output>
				<port id="3" precision="FP32" names="/model2/encoder/layers.0/self_attn/Gather_4_output_0">
					<dim>1</dim>
					<dim>61</dim>
					<dim>42</dim>
				</port>
			</output>
		</layer>
		<layer id="213" name="Constant_10942" type="Const" version="opset1">
			<data element_type="i64" shape="3" offset="16366" size="24" />
			<rt_info>
				<attribute name="precise" version="0" />
			</rt_info>
			<output>
				<port id="0" precision="I64">
					<dim>3</dim>
				</port>
			</output>
		</layer>
		<layer id="214" name="/model2/encoder/layers.0/self_attn/Reshape_4" type="Reshape" version="opset1">
			<data special_zero="true" />
			<input>
				<port id="0" precision="FP32">
					<dim>1</dim>
					<dim>61</dim>
					<dim>42</dim>
				</port>
				<port id="1" precision="I64">
					<dim>3</dim>
				</port>
			</input>
			<output>
				<port id="2" precision="FP32" names="/model2/encoder/layers.0/self_attn/Reshape_4_output_0">
					<dim>1</dim>
					<dim>61</dim>
					<dim>42</dim>
				</port>
			</output>
		</layer>
		<layer id="215" name="Constant_9839" type="Const" version="opset1">
			<data element_type="i64" shape="3" offset="16390" size="24" />
			<rt_info>
				<attribute name="precise" version="0" />
			</rt_info>
			<output>
				<port id="0" precision="I64">
					<dim>3</dim>
				</port>
			</output>
		</layer>
		<layer id="216" name="/model2/encoder/layers.0/self_attn/Transpose_2" type="Reshape" version="opset1">
			<data special_zero="true" />
			<input>
				<port id="0" precision="FP32">
					<dim>1</dim>
					<dim>61</dim>
					<dim>42</dim>
				</port>
				<port id="1" precision="I64">
					<dim>3</dim>
				</port>
			</input>
			<output>
				<port id="2" precision="FP32" names="/model2/encoder/layers.0/self_attn/Transpose_2_output_0">
					<dim>61</dim>
					<dim>1</dim>
					<dim>42</dim>
				</port>
			</output>
		</layer>
		<layer id="217" name="Constant_10943" type="Const" version="opset1">
			<data element_type="i64" shape="4" offset="16414" size="32" />
			<rt_info>
				<attribute name="precise" version="0" />
			</rt_info>
			<output>
				<port id="0" precision="I64">
					<dim>4</dim>
				</port>
			</output>
		</layer>
		<layer id="218" name="/model2/encoder/layers.0/self_attn/Reshape_7" type="Reshape" version="opset1">
			<data special_zero="true" />
			<input>
				<port id="0" precision="FP32">
					<dim>61</dim>
					<dim>1</dim>
					<dim>42</dim>
				</port>
				<port id="1" precision="I64">
					<dim>4</dim>
				</port>
			</input>
			<output>
				<port id="2" precision="FP32" names="/model2/encoder/layers.0/self_attn/Reshape_7_output_0">
					<dim>61</dim>
					<dim>1</dim>
					<dim>1</dim>
					<dim>42</dim>
				</port>
			</output>
		</layer>
		<layer id="219" name="Constant_9841" type="Const" version="opset1">
			<data element_type="i64" shape="4" offset="16446" size="32" />
			<rt_info>
				<attribute name="precise" version="0" />
			</rt_info>
			<output>
				<port id="0" precision="I64">
					<dim>4</dim>
				</port>
			</output>
		</layer>
		<layer id="220" name="/model2/encoder/layers.0/self_attn/Transpose_4" type="Reshape" version="opset1">
			<data special_zero="true" />
			<input>
				<port id="0" precision="FP32">
					<dim>61</dim>
					<dim>1</dim>
					<dim>1</dim>
					<dim>42</dim>
				</port>
				<port id="1" precision="I64">
					<dim>4</dim>
				</port>
			</input>
			<output>
				<port id="2" precision="FP32" names="/model2/encoder/layers.0/self_attn/Transpose_4_output_0">
					<dim>61</dim>
					<dim>1</dim>
					<dim>42</dim>
					<dim>1</dim>
				</port>
			</output>
		</layer>
		<layer id="221" name="/model2/encoder/layers.0/self_attn/Mul_1" type="Multiply" version="opset1">
			<data auto_broadcast="numpy" />
			<input>
				<port id="0" precision="FP32">
					<dim>61</dim>
					<dim>1</dim>
					<dim>42</dim>
					<dim>1</dim>
				</port>
				<port id="1" precision="FP32">
					<dim>1</dim>
				</port>
			</input>
			<output>
				<port id="2" precision="FP32" names="/model2/encoder/layers.0/self_attn/Mul_1_output_0">
					<dim>61</dim>
					<dim>1</dim>
					<dim>42</dim>
					<dim>1</dim>
				</port>
			</output>
		</layer>
		<layer id="222" name="/model2/encoder/layers.0/self_attn/MatMul_1" type="MatMul" version="opset1">
			<data transpose_a="false" transpose_b="false" />
			<input>
				<port id="0" precision="FP32">
					<dim>61</dim>
					<dim>1</dim>
					<dim>1</dim>
					<dim>42</dim>
				</port>
				<port id="1" precision="FP32">
					<dim>61</dim>
					<dim>1</dim>
					<dim>42</dim>
					<dim>1</dim>
				</port>
			</input>
			<output>
				<port id="2" precision="FP32" names="/model2/encoder/layers.0/self_attn/MatMul_1_output_0">
					<dim>61</dim>
					<dim>1</dim>
					<dim>1</dim>
					<dim>1</dim>
				</port>
			</output>
		</layer>
		<layer id="223" name="/model2/encoder/layers.0/self_attn/Softmax" type="SoftMax" version="opset8">
			<data axis="-1" />
			<input>
				<port id="0" precision="FP32">
					<dim>61</dim>
					<dim>1</dim>
					<dim>1</dim>
					<dim>1</dim>
				</port>
			</input>
			<output>
				<port id="1" precision="FP32" names="/model2/encoder/layers.0/self_attn/Softmax_output_0">
					<dim>61</dim>
					<dim>1</dim>
					<dim>1</dim>
					<dim>1</dim>
				</port>
			</output>
		</layer>
		<layer id="224" name="Constant_831" type="Const" version="opset1">
			<data element_type="i64" shape="" offset="5124" size="8" />
			<output>
				<port id="0" precision="I64" />
			</output>
		</layer>
		<layer id="225" name="/model2/encoder/layers.0/self_attn/Gather_5" type="Gather" version="opset8">
			<data batch_dims="0" />
			<input>
				<port id="0" precision="FP32">
					<dim>3</dim>
					<dim>1</dim>
					<dim>61</dim>
					<dim>42</dim>
				</port>
				<port id="1" precision="I64" />
				<port id="2" precision="I64" />
			</input>
			<output>
				<port id="3" precision="FP32" names="/model2/encoder/layers.0/self_attn/Gather_5_output_0">
					<dim>1</dim>
					<dim>61</dim>
					<dim>42</dim>
				</port>
			</output>
		</layer>
		<layer id="226" name="Constant_10944" type="Const" version="opset1">
			<data element_type="i64" shape="3" offset="16366" size="24" />
			<rt_info>
				<attribute name="precise" version="0" />
			</rt_info>
			<output>
				<port id="0" precision="I64">
					<dim>3</dim>
				</port>
			</output>
		</layer>
		<layer id="227" name="/model2/encoder/layers.0/self_attn/Reshape_5" type="Reshape" version="opset1">
			<data special_zero="true" />
			<input>
				<port id="0" precision="FP32">
					<dim>1</dim>
					<dim>61</dim>
					<dim>42</dim>
				</port>
				<port id="1" precision="I64">
					<dim>3</dim>
				</port>
			</input>
			<output>
				<port id="2" precision="FP32" names="/model2/encoder/layers.0/self_attn/Reshape_5_output_0">
					<dim>1</dim>
					<dim>61</dim>
					<dim>42</dim>
				</port>
			</output>
		</layer>
		<layer id="228" name="Constant_9845" type="Const" version="opset1">
			<data element_type="i64" shape="3" offset="16390" size="24" />
			<rt_info>
				<attribute name="precise" version="0" />
			</rt_info>
			<output>
				<port id="0" precision="I64">
					<dim>3</dim>
				</port>
			</output>
		</layer>
		<layer id="229" name="/model2/encoder/layers.0/self_attn/Transpose_3" type="Reshape" version="opset1">
			<data special_zero="true" />
			<input>
				<port id="0" precision="FP32">
					<dim>1</dim>
					<dim>61</dim>
					<dim>42</dim>
				</port>
				<port id="1" precision="I64">
					<dim>3</dim>
				</port>
			</input>
			<output>
				<port id="2" precision="FP32" names="/model2/encoder/layers.0/self_attn/Transpose_3_output_0">
					<dim>61</dim>
					<dim>1</dim>
					<dim>42</dim>
				</port>
			</output>
		</layer>
		<layer id="230" name="Constant_10945" type="Const" version="opset1">
			<data element_type="i64" shape="4" offset="16414" size="32" />
			<rt_info>
				<attribute name="precise" version="0" />
			</rt_info>
			<output>
				<port id="0" precision="I64">
					<dim>4</dim>
				</port>
			</output>
		</layer>
		<layer id="231" name="/model2/encoder/layers.0/self_attn/Reshape_8" type="Reshape" version="opset1">
			<data special_zero="true" />
			<input>
				<port id="0" precision="FP32">
					<dim>61</dim>
					<dim>1</dim>
					<dim>42</dim>
				</port>
				<port id="1" precision="I64">
					<dim>4</dim>
				</port>
			</input>
			<output>
				<port id="2" precision="FP32" names="/model2/encoder/layers.0/self_attn/Reshape_8_output_0">
					<dim>61</dim>
					<dim>1</dim>
					<dim>1</dim>
					<dim>42</dim>
				</port>
			</output>
		</layer>
		<layer id="232" name="/model2/encoder/layers.0/self_attn/MatMul_2" type="MatMul" version="opset1">
			<data transpose_a="false" transpose_b="false" />
			<input>
				<port id="0" precision="FP32">
					<dim>61</dim>
					<dim>1</dim>
					<dim>1</dim>
					<dim>1</dim>
				</port>
				<port id="1" precision="FP32">
					<dim>61</dim>
					<dim>1</dim>
					<dim>1</dim>
					<dim>42</dim>
				</port>
			</input>
			<output>
				<port id="2" precision="FP32" names="/model2/encoder/layers.0/self_attn/MatMul_2_output_0">
					<dim>61</dim>
					<dim>1</dim>
					<dim>1</dim>
					<dim>42</dim>
				</port>
			</output>
		</layer>
		<layer id="233" name="Constant_1193" type="Const" version="opset1">
			<data element_type="i64" shape="4" offset="16244" size="32" />
			<output>
				<port id="0" precision="I64">
					<dim>4</dim>
				</port>
			</output>
		</layer>
		<layer id="234" name="/model2/encoder/layers.0/self_attn/Transpose_5" type="Transpose" version="opset1">
			<input>
				<port id="0" precision="FP32">
					<dim>61</dim>
					<dim>1</dim>
					<dim>1</dim>
					<dim>42</dim>
				</port>
				<port id="1" precision="I64">
					<dim>4</dim>
				</port>
			</input>
			<output>
				<port id="2" precision="FP32" names="/model2/encoder/layers.0/self_attn/Transpose_5_output_0">
					<dim>1</dim>
					<dim>61</dim>
					<dim>1</dim>
					<dim>42</dim>
				</port>
			</output>
		</layer>
		<layer id="235" name="Concat_4144" type="Const" version="opset1">
			<data element_type="i64" shape="2" offset="16478" size="16" />
			<rt_info>
				<attribute name="precise" version="0" />
			</rt_info>
			<output>
				<port id="0" precision="I64">
					<dim>2</dim>
				</port>
			</output>
		</layer>
		<layer id="236" name="/model2/encoder/layers.0/self_attn/Reshape_9" type="Reshape" version="opset1">
			<data special_zero="true" />
			<input>
				<port id="0" precision="FP32">
					<dim>1</dim>
					<dim>61</dim>
					<dim>1</dim>
					<dim>42</dim>
				</port>
				<port id="1" precision="I64">
					<dim>2</dim>
				</port>
			</input>
			<output>
				<port id="2" precision="FP32" names="/model2/encoder/layers.0/self_attn/Reshape_9_output_0">
					<dim>61</dim>
					<dim>42</dim>
				</port>
			</output>
		</layer>
		<layer id="237" name="model2.encoder.layers.0.self_attn.out_proj.weight_compressed" type="Const" version="opset1">
			<data element_type="f16" shape="42, 42" offset="385332" size="3528" />
			<output>
				<port id="0" precision="FP16">
					<dim>42</dim>
					<dim>42</dim>
				</port>
			</output>
		</layer>
		<layer id="238" name="model2.encoder.layers.0.self_attn.out_proj.weight" type="Convert" version="opset1">
			<data destination_type="f32" />
			<rt_info>
				<attribute name="decompression" version="0" />
			</rt_info>
			<input>
				<port id="0" precision="FP16">
					<dim>42</dim>
					<dim>42</dim>
				</port>
			</input>
			<output>
				<port id="1" precision="FP32" names="model2.encoder.layers.0.self_attn.out_proj.weight">
					<dim>42</dim>
					<dim>42</dim>
				</port>
			</output>
		</layer>
		<layer id="239" name="/model2/encoder/layers.0/self_attn/Gemm/WithoutBiases" type="MatMul" version="opset1">
			<data transpose_a="false" transpose_b="true" />
			<input>
				<port id="0" precision="FP32">
					<dim>61</dim>
					<dim>42</dim>
				</port>
				<port id="1" precision="FP32">
					<dim>42</dim>
					<dim>42</dim>
				</port>
			</input>
			<output>
				<port id="2" precision="FP32">
					<dim>61</dim>
					<dim>42</dim>
				</port>
			</output>
		</layer>
		<layer id="240" name="Constant_10165_compressed" type="Const" version="opset1">
			<data element_type="f16" shape="1, 42" offset="388860" size="84" />
			<output>
				<port id="0" precision="FP16">
					<dim>1</dim>
					<dim>42</dim>
				</port>
			</output>
		</layer>
		<layer id="241" name="Constant_10165" type="Convert" version="opset1">
			<data destination_type="f32" />
			<rt_info>
				<attribute name="decompression" version="0" />
			</rt_info>
			<input>
				<port id="0" precision="FP16">
					<dim>1</dim>
					<dim>42</dim>
				</port>
			</input>
			<output>
				<port id="1" precision="FP32">
					<dim>1</dim>
					<dim>42</dim>
				</port>
			</output>
		</layer>
		<layer id="242" name="/model2/encoder/layers.0/self_attn/Gemm" type="Add" version="opset1">
			<data auto_broadcast="numpy" />
			<input>
				<port id="0" precision="FP32">
					<dim>61</dim>
					<dim>42</dim>
				</port>
				<port id="1" precision="FP32">
					<dim>1</dim>
					<dim>42</dim>
				</port>
			</input>
			<output>
				<port id="2" precision="FP32" names="/model2/encoder/layers.0/self_attn/Gemm_output_0">
					<dim>61</dim>
					<dim>42</dim>
				</port>
			</output>
		</layer>
		<layer id="243" name="/model2/encoder/layers.0/self_attn/Shape_3" type="ShapeOf" version="opset3">
			<data output_type="i64" />
			<input>
				<port id="0" precision="FP32">
					<dim>1</dim>
					<dim>61</dim>
					<dim>42</dim>
				</port>
			</input>
			<output>
				<port id="1" precision="I64" names="/model2/encoder/layers.0/self_attn/Concat_2_output_0,/model2/encoder/layers.0/self_attn/Concat_9_output_0,/model2/encoder/layers.0/self_attn/Shape_1_output_0,/model2/encoder/layers.0/self_attn/Shape_2_output_0,/model2/encoder/layers.0/self_attn/Shape_3_output_0,/model2/encoder/layers.0/self_attn/Shape_output_0">
					<dim>3</dim>
				</port>
			</output>
		</layer>
		<layer id="244" name="/model2/encoder/layers.0/self_attn/Reshape_10" type="Reshape" version="opset1">
			<data special_zero="true" />
			<input>
				<port id="0" precision="FP32">
					<dim>61</dim>
					<dim>42</dim>
				</port>
				<port id="1" precision="I64">
					<dim>3</dim>
				</port>
			</input>
			<output>
				<port id="2" precision="FP32" names="/model2/encoder/layers.0/self_attn/Reshape_10_output_0">
					<dim>1</dim>
					<dim>61</dim>
					<dim>42</dim>
				</port>
			</output>
		</layer>
		<layer id="245" name="/model2/encoder/layers.0/Add" type="Add" version="opset1">
			<data auto_broadcast="numpy" />
			<input>
				<port id="0" precision="FP32">
					<dim>1</dim>
					<dim>61</dim>
					<dim>42</dim>
				</port>
				<port id="1" precision="FP32">
					<dim>1</dim>
					<dim>61</dim>
					<dim>42</dim>
				</port>
			</input>
			<output>
				<port id="2" precision="FP32" names="/model2/encoder/layers.0/Add_output_0">
					<dim>1</dim>
					<dim>61</dim>
					<dim>42</dim>
				</port>
			</output>
		</layer>
		<layer id="246" name="Constant_1221" type="Const" version="opset1">
			<data element_type="i64" shape="1" offset="5156" size="8" />
			<output>
				<port id="0" precision="I64">
					<dim>1</dim>
				</port>
			</output>
		</layer>
		<layer id="247" name="/model2/encoder/layers.0/norm1/Div" type="MVN" version="opset6">
			<data eps="9.9999997473787516e-06" normalize_variance="true" eps_mode="INSIDE_SQRT" />
			<input>
				<port id="0" precision="FP32">
					<dim>1</dim>
					<dim>61</dim>
					<dim>42</dim>
				</port>
				<port id="1" precision="I64">
					<dim>1</dim>
				</port>
			</input>
			<output>
				<port id="2" precision="FP32" names="/model2/encoder/layers.0/norm1/Div_output_0">
					<dim>1</dim>
					<dim>61</dim>
					<dim>42</dim>
				</port>
			</output>
		</layer>
		<layer id="248" name="Constant_10166_compressed" type="Const" version="opset1">
			<data element_type="f16" shape="1, 1, 42" offset="388944" size="84" />
			<output>
				<port id="0" precision="FP16">
					<dim>1</dim>
					<dim>1</dim>
					<dim>42</dim>
				</port>
			</output>
		</layer>
		<layer id="249" name="Constant_10166" type="Convert" version="opset1">
			<data destination_type="f32" />
			<rt_info>
				<attribute name="decompression" version="0" />
			</rt_info>
			<input>
				<port id="0" precision="FP16">
					<dim>1</dim>
					<dim>1</dim>
					<dim>42</dim>
				</port>
			</input>
			<output>
				<port id="1" precision="FP32">
					<dim>1</dim>
					<dim>1</dim>
					<dim>42</dim>
				</port>
			</output>
		</layer>
		<layer id="250" name="/model2/encoder/layers.0/norm1/Mul" type="Multiply" version="opset1">
			<data auto_broadcast="numpy" />
			<input>
				<port id="0" precision="FP32">
					<dim>1</dim>
					<dim>61</dim>
					<dim>42</dim>
				</port>
				<port id="1" precision="FP32">
					<dim>1</dim>
					<dim>1</dim>
					<dim>42</dim>
				</port>
			</input>
			<output>
				<port id="2" precision="FP32" names="/model2/encoder/layers.0/norm1/Mul_output_0">
					<dim>1</dim>
					<dim>61</dim>
					<dim>42</dim>
				</port>
			</output>
		</layer>
		<layer id="251" name="Constant_10167_compressed" type="Const" version="opset1">
			<data element_type="f16" shape="1, 1, 42" offset="389028" size="84" />
			<output>
				<port id="0" precision="FP16">
					<dim>1</dim>
					<dim>1</dim>
					<dim>42</dim>
				</port>
			</output>
		</layer>
		<layer id="252" name="Constant_10167" type="Convert" version="opset1">
			<data destination_type="f32" />
			<rt_info>
				<attribute name="decompression" version="0" />
			</rt_info>
			<input>
				<port id="0" precision="FP16">
					<dim>1</dim>
					<dim>1</dim>
					<dim>42</dim>
				</port>
			</input>
			<output>
				<port id="1" precision="FP32">
					<dim>1</dim>
					<dim>1</dim>
					<dim>42</dim>
				</port>
			</output>
		</layer>
		<layer id="253" name="/model2/encoder/layers.0/norm1/Add_1" type="Add" version="opset1">
			<data auto_broadcast="numpy" />
			<input>
				<port id="0" precision="FP32">
					<dim>1</dim>
					<dim>61</dim>
					<dim>42</dim>
				</port>
				<port id="1" precision="FP32">
					<dim>1</dim>
					<dim>1</dim>
					<dim>42</dim>
				</port>
			</input>
			<output>
				<port id="2" precision="FP32" names="/model2/encoder/layers.0/norm1/Add_1_output_0">
					<dim>1</dim>
					<dim>61</dim>
					<dim>42</dim>
				</port>
			</output>
		</layer>
		<layer id="254" name="Constant_10169_compressed" type="Const" version="opset1">
			<data element_type="f16" shape="1, 1, 42" offset="389112" size="84" />
			<output>
				<port id="0" precision="FP16">
					<dim>1</dim>
					<dim>1</dim>
					<dim>42</dim>
				</port>
			</output>
		</layer>
		<layer id="255" name="Constant_10169" type="Convert" version="opset1">
			<data destination_type="f32" />
			<rt_info>
				<attribute name="decompression" version="0" />
			</rt_info>
			<input>
				<port id="0" precision="FP16">
					<dim>1</dim>
					<dim>1</dim>
					<dim>42</dim>
				</port>
			</input>
			<output>
				<port id="1" precision="FP32">
					<dim>1</dim>
					<dim>1</dim>
					<dim>42</dim>
				</port>
			</output>
		</layer>
		<layer id="256" name="Constant_10168_compressed" type="Const" version="opset1">
			<data element_type="f16" shape="1, 1, 2048" offset="389196" size="4096" />
			<output>
				<port id="0" precision="FP16">
					<dim>1</dim>
					<dim>1</dim>
					<dim>2048</dim>
				</port>
			</output>
		</layer>
		<layer id="257" name="Constant_10168" type="Convert" version="opset1">
			<data destination_type="f32" />
			<rt_info>
				<attribute name="decompression" version="0" />
			</rt_info>
			<input>
				<port id="0" precision="FP16">
					<dim>1</dim>
					<dim>1</dim>
					<dim>2048</dim>
				</port>
			</input>
			<output>
				<port id="1" precision="FP32">
					<dim>1</dim>
					<dim>1</dim>
					<dim>2048</dim>
				</port>
			</output>
		</layer>
		<layer id="258" name="Transpose_9861_compressed" type="Const" version="opset1">
			<data element_type="f16" shape="2048, 42" offset="393292" size="172032" />
			<output>
				<port id="0" precision="FP16">
					<dim>2048</dim>
					<dim>42</dim>
				</port>
			</output>
		</layer>
		<layer id="259" name="Transpose_9861" type="Convert" version="opset1">
			<data destination_type="f32" />
			<rt_info>
				<attribute name="decompression" version="0" />
			</rt_info>
			<input>
				<port id="0" precision="FP16">
					<dim>2048</dim>
					<dim>42</dim>
				</port>
			</input>
			<output>
				<port id="1" precision="FP32">
					<dim>2048</dim>
					<dim>42</dim>
				</port>
			</output>
		</layer>
		<layer id="260" name="/model2/encoder/layers.0/linear1/MatMul" type="MatMul" version="opset1">
			<data transpose_a="false" transpose_b="true" />
			<input>
				<port id="0" precision="FP32">
					<dim>1</dim>
					<dim>61</dim>
					<dim>42</dim>
				</port>
				<port id="1" precision="FP32">
					<dim>2048</dim>
					<dim>42</dim>
				</port>
			</input>
			<output>
				<port id="2" precision="FP32" names="/model2/encoder/layers.0/linear1/MatMul_output_0">
					<dim>1</dim>
					<dim>61</dim>
					<dim>2048</dim>
				</port>
			</output>
		</layer>
		<layer id="261" name="/model2/encoder/layers.0/linear1/Add" type="Add" version="opset1">
			<data auto_broadcast="numpy" />
			<input>
				<port id="0" precision="FP32">
					<dim>1</dim>
					<dim>1</dim>
					<dim>2048</dim>
				</port>
				<port id="1" precision="FP32">
					<dim>1</dim>
					<dim>61</dim>
					<dim>2048</dim>
				</port>
			</input>
			<output>
				<port id="2" precision="FP32" names="/model2/encoder/layers.0/linear1/Add_output_0">
					<dim>1</dim>
					<dim>61</dim>
					<dim>2048</dim>
				</port>
			</output>
		</layer>
		<layer id="262" name="/model2/encoder/layers.0/Relu" type="ReLU" version="opset1">
			<input>
				<port id="0" precision="FP32">
					<dim>1</dim>
					<dim>61</dim>
					<dim>2048</dim>
				</port>
			</input>
			<output>
				<port id="1" precision="FP32" names="/model2/encoder/layers.0/Relu_output_0">
					<dim>1</dim>
					<dim>61</dim>
					<dim>2048</dim>
				</port>
			</output>
		</layer>
		<layer id="263" name="Transpose_9868_compressed" type="Const" version="opset1">
			<data element_type="f16" shape="42, 2048" offset="565324" size="172032" />
			<output>
				<port id="0" precision="FP16">
					<dim>42</dim>
					<dim>2048</dim>
				</port>
			</output>
		</layer>
		<layer id="264" name="Transpose_9868" type="Convert" version="opset1">
			<data destination_type="f32" />
			<rt_info>
				<attribute name="decompression" version="0" />
			</rt_info>
			<input>
				<port id="0" precision="FP16">
					<dim>42</dim>
					<dim>2048</dim>
				</port>
			</input>
			<output>
				<port id="1" precision="FP32">
					<dim>42</dim>
					<dim>2048</dim>
				</port>
			</output>
		</layer>
		<layer id="265" name="/model2/encoder/layers.0/linear2/MatMul" type="MatMul" version="opset1">
			<data transpose_a="false" transpose_b="true" />
			<input>
				<port id="0" precision="FP32">
					<dim>1</dim>
					<dim>61</dim>
					<dim>2048</dim>
				</port>
				<port id="1" precision="FP32">
					<dim>42</dim>
					<dim>2048</dim>
				</port>
			</input>
			<output>
				<port id="2" precision="FP32" names="/model2/encoder/layers.0/linear2/MatMul_output_0">
					<dim>1</dim>
					<dim>61</dim>
					<dim>42</dim>
				</port>
			</output>
		</layer>
		<layer id="266" name="/model2/encoder/layers.0/linear2/Add" type="Add" version="opset1">
			<data auto_broadcast="numpy" />
			<input>
				<port id="0" precision="FP32">
					<dim>1</dim>
					<dim>1</dim>
					<dim>42</dim>
				</port>
				<port id="1" precision="FP32">
					<dim>1</dim>
					<dim>61</dim>
					<dim>42</dim>
				</port>
			</input>
			<output>
				<port id="2" precision="FP32" names="/model2/encoder/layers.0/linear2/Add_output_0">
					<dim>1</dim>
					<dim>61</dim>
					<dim>42</dim>
				</port>
			</output>
		</layer>
		<layer id="267" name="/model2/encoder/layers.0/Add_1" type="Add" version="opset1">
			<data auto_broadcast="numpy" />
			<input>
				<port id="0" precision="FP32">
					<dim>1</dim>
					<dim>61</dim>
					<dim>42</dim>
				</port>
				<port id="1" precision="FP32">
					<dim>1</dim>
					<dim>61</dim>
					<dim>42</dim>
				</port>
			</input>
			<output>
				<port id="2" precision="FP32" names="/model2/encoder/layers.0/Add_1_output_0">
					<dim>1</dim>
					<dim>61</dim>
					<dim>42</dim>
				</port>
			</output>
		</layer>
		<layer id="268" name="Constant_1240" type="Const" version="opset1">
			<data element_type="i64" shape="1" offset="5156" size="8" />
			<output>
				<port id="0" precision="I64">
					<dim>1</dim>
				</port>
			</output>
		</layer>
		<layer id="269" name="/model2/encoder/layers.0/norm2/Div" type="MVN" version="opset6">
			<data eps="9.9999997473787516e-06" normalize_variance="true" eps_mode="INSIDE_SQRT" />
			<input>
				<port id="0" precision="FP32">
					<dim>1</dim>
					<dim>61</dim>
					<dim>42</dim>
				</port>
				<port id="1" precision="I64">
					<dim>1</dim>
				</port>
			</input>
			<output>
				<port id="2" precision="FP32" names="/model2/encoder/layers.0/norm2/Div_output_0">
					<dim>1</dim>
					<dim>61</dim>
					<dim>42</dim>
				</port>
			</output>
		</layer>
		<layer id="270" name="Constant_10170_compressed" type="Const" version="opset1">
			<data element_type="f16" shape="1, 1, 42" offset="737356" size="84" />
			<output>
				<port id="0" precision="FP16">
					<dim>1</dim>
					<dim>1</dim>
					<dim>42</dim>
				</port>
			</output>
		</layer>
		<layer id="271" name="Constant_10170" type="Convert" version="opset1">
			<data destination_type="f32" />
			<rt_info>
				<attribute name="decompression" version="0" />
			</rt_info>
			<input>
				<port id="0" precision="FP16">
					<dim>1</dim>
					<dim>1</dim>
					<dim>42</dim>
				</port>
			</input>
			<output>
				<port id="1" precision="FP32">
					<dim>1</dim>
					<dim>1</dim>
					<dim>42</dim>
				</port>
			</output>
		</layer>
		<layer id="272" name="/model2/encoder/layers.0/norm2/Mul" type="Multiply" version="opset1">
			<data auto_broadcast="numpy" />
			<input>
				<port id="0" precision="FP32">
					<dim>1</dim>
					<dim>61</dim>
					<dim>42</dim>
				</port>
				<port id="1" precision="FP32">
					<dim>1</dim>
					<dim>1</dim>
					<dim>42</dim>
				</port>
			</input>
			<output>
				<port id="2" precision="FP32" names="/model2/encoder/layers.0/norm2/Mul_output_0">
					<dim>1</dim>
					<dim>61</dim>
					<dim>42</dim>
				</port>
			</output>
		</layer>
		<layer id="273" name="Constant_10171_compressed" type="Const" version="opset1">
			<data element_type="f16" shape="1, 1, 42" offset="737440" size="84" />
			<output>
				<port id="0" precision="FP16">
					<dim>1</dim>
					<dim>1</dim>
					<dim>42</dim>
				</port>
			</output>
		</layer>
		<layer id="274" name="Constant_10171" type="Convert" version="opset1">
			<data destination_type="f32" />
			<rt_info>
				<attribute name="decompression" version="0" />
			</rt_info>
			<input>
				<port id="0" precision="FP16">
					<dim>1</dim>
					<dim>1</dim>
					<dim>42</dim>
				</port>
			</input>
			<output>
				<port id="1" precision="FP32">
					<dim>1</dim>
					<dim>1</dim>
					<dim>42</dim>
				</port>
			</output>
		</layer>
		<layer id="275" name="/model2/encoder/layers.0/norm2/Add_1" type="Add" version="opset1">
			<data auto_broadcast="numpy" />
			<input>
				<port id="0" precision="FP32">
					<dim>1</dim>
					<dim>61</dim>
					<dim>42</dim>
				</port>
				<port id="1" precision="FP32">
					<dim>1</dim>
					<dim>1</dim>
					<dim>42</dim>
				</port>
			</input>
			<output>
				<port id="2" precision="FP32" names="/model2/encoder/layers.0/norm2/Add_1_output_0">
					<dim>1</dim>
					<dim>61</dim>
					<dim>42</dim>
				</port>
			</output>
		</layer>
		<layer id="276" name="Constant_1253" type="Const" version="opset1">
			<data element_type="i64" shape="1" offset="5140" size="8" />
			<output>
				<port id="0" precision="I64">
					<dim>1</dim>
				</port>
			</output>
		</layer>
		<layer id="277" name="/model2/ReduceMean" type="ReduceMean" version="opset1">
			<data keep_dims="false" />
			<input>
				<port id="0" precision="FP32">
					<dim>1</dim>
					<dim>61</dim>
					<dim>42</dim>
				</port>
				<port id="1" precision="I64">
					<dim>1</dim>
				</port>
			</input>
			<output>
				<port id="2" precision="FP32" names="/model2/ReduceMean_output_0">
					<dim>1</dim>
					<dim>42</dim>
				</port>
			</output>
		</layer>
		<layer id="278" name="model2.linear.weight_compressed" type="Const" version="opset1">
			<data element_type="f16" shape="7, 42" offset="737524" size="588" />
			<output>
				<port id="0" precision="FP16">
					<dim>7</dim>
					<dim>42</dim>
				</port>
			</output>
		</layer>
		<layer id="279" name="model2.linear.weight" type="Convert" version="opset1">
			<data destination_type="f32" />
			<rt_info>
				<attribute name="decompression" version="0" />
			</rt_info>
			<input>
				<port id="0" precision="FP16">
					<dim>7</dim>
					<dim>42</dim>
				</port>
			</input>
			<output>
				<port id="1" precision="FP32" names="model2.linear.weight">
					<dim>7</dim>
					<dim>42</dim>
				</port>
			</output>
		</layer>
		<layer id="280" name="/model2/linear/Gemm/WithoutBiases" type="MatMul" version="opset1">
			<data transpose_a="false" transpose_b="true" />
			<input>
				<port id="0" precision="FP32">
					<dim>1</dim>
					<dim>42</dim>
				</port>
				<port id="1" precision="FP32">
					<dim>7</dim>
					<dim>42</dim>
				</port>
			</input>
			<output>
				<port id="2" precision="FP32">
					<dim>1</dim>
					<dim>7</dim>
				</port>
			</output>
		</layer>
		<layer id="281" name="Constant_10172_compressed" type="Const" version="opset1">
			<data element_type="f16" shape="1, 7" offset="738112" size="14" />
			<output>
				<port id="0" precision="FP16">
					<dim>1</dim>
					<dim>7</dim>
				</port>
			</output>
		</layer>
		<layer id="282" name="Constant_10172" type="Convert" version="opset1">
			<data destination_type="f32" />
			<rt_info>
				<attribute name="decompression" version="0" />
			</rt_info>
			<input>
				<port id="0" precision="FP16">
					<dim>1</dim>
					<dim>7</dim>
				</port>
			</input>
			<output>
				<port id="1" precision="FP32">
					<dim>1</dim>
					<dim>7</dim>
				</port>
			</output>
		</layer>
		<layer id="283" name="/model2/linear/Gemm" type="Add" version="opset1">
			<data auto_broadcast="numpy" />
			<input>
				<port id="0" precision="FP32">
					<dim>1</dim>
					<dim>7</dim>
				</port>
				<port id="1" precision="FP32">
					<dim>1</dim>
					<dim>7</dim>
				</port>
			</input>
			<output>
				<port id="2" precision="FP32" names="/model2/linear/Gemm_output_0">
					<dim>1</dim>
					<dim>7</dim>
				</port>
			</output>
		</layer>
		<layer id="284" name="/Add" type="Add" version="opset1">
			<data auto_broadcast="numpy" />
			<input>
				<port id="0" precision="FP32">
					<dim>1</dim>
					<dim>7</dim>
				</port>
				<port id="1" precision="FP32">
					<dim>1</dim>
					<dim>7</dim>
				</port>
			</input>
			<output>
				<port id="2" precision="FP32" names="/Add_output_0">
					<dim>1</dim>
					<dim>7</dim>
				</port>
			</output>
		</layer>
		<layer id="285" name="onnx::Expand_1003_compressed" type="Const" version="opset1">
			<data element_type="f16" shape="1, 61, 84" offset="738126" size="10248" />
			<output>
				<port id="0" precision="FP16">
					<dim>1</dim>
					<dim>61</dim>
					<dim>84</dim>
				</port>
			</output>
		</layer>
		<layer id="286" name="onnx::Expand_1003" type="Convert" version="opset1">
			<data destination_type="f32" />
			<rt_info>
				<attribute name="decompression" version="0" />
			</rt_info>
			<input>
				<port id="0" precision="FP16">
					<dim>1</dim>
					<dim>61</dim>
					<dim>84</dim>
				</port>
			</input>
			<output>
				<port id="1" precision="FP32" names="onnx::Expand_1003">
					<dim>1</dim>
					<dim>61</dim>
					<dim>84</dim>
				</port>
			</output>
		</layer>
		<layer id="287" name="/model3/Expand_1" type="Broadcast" version="opset3">
			<data mode="bidirectional" />
			<input>
				<port id="0" precision="FP32">
					<dim>1</dim>
					<dim>61</dim>
					<dim>84</dim>
				</port>
				<port id="1" precision="I64">
					<dim>3</dim>
				</port>
			</input>
			<output>
				<port id="2" precision="FP32" names="/model3/Expand_1_output_0">
					<dim>1</dim>
					<dim>61</dim>
					<dim>84</dim>
				</port>
			</output>
		</layer>
		<layer id="288" name="/model3/Constant_19" type="Const" version="opset1">
			<data element_type="i64" shape="1" offset="5124" size="8" />
			<output>
				<port id="0" precision="I64" names="/model3/Constant_19_output_0">
					<dim>1</dim>
				</port>
			</output>
		</layer>
		<layer id="289" name="/model3/Constant_21" type="Const" version="opset1">
			<data element_type="i64" shape="1" offset="5140" size="8" />
			<output>
				<port id="0" precision="I64" names="/model3/Constant_21_output_0">
					<dim>1</dim>
				</port>
			</output>
		</layer>
		<layer id="290" name="/model3/Constant_18" type="Const" version="opset1">
			<data element_type="i64" shape="1" offset="5140" size="8" />
			<output>
				<port id="0" precision="I64" names="/model3/Constant_18_output_0">
					<dim>1</dim>
				</port>
			</output>
		</layer>
		<layer id="291" name="/model3/Slice" type="Slice" version="opset8">
			<input>
				<port id="0" precision="FP32">
					<dim>1</dim>
					<dim>61</dim>
					<dim>84</dim>
				</port>
				<port id="1" precision="I64">
					<dim>1</dim>
				</port>
				<port id="2" precision="I64">
					<dim>1</dim>
				</port>
				<port id="3" precision="I64">
					<dim>1</dim>
				</port>
				<port id="4" precision="I64">
					<dim>1</dim>
				</port>
			</input>
			<output>
				<port id="5" precision="FP32" names="/model3/Slice_output_0">
					<dim>1</dim>
					<dim>61</dim>
					<dim>84</dim>
				</port>
			</output>
		</layer>
		<layer id="292" name="onnx::Expand_995_compressed" type="Const" version="opset1">
			<data element_type="f16" shape="1, 84" offset="748374" size="168" />
			<output>
				<port id="0" precision="FP16">
					<dim>1</dim>
					<dim>84</dim>
				</port>
			</output>
		</layer>
		<layer id="293" name="onnx::Expand_995" type="Convert" version="opset1">
			<data destination_type="f32" />
			<rt_info>
				<attribute name="decompression" version="0" />
			</rt_info>
			<input>
				<port id="0" precision="FP16">
					<dim>1</dim>
					<dim>84</dim>
				</port>
			</input>
			<output>
				<port id="1" precision="FP32" names="onnx::Expand_995">
					<dim>1</dim>
					<dim>84</dim>
				</port>
			</output>
		</layer>
		<layer id="294" name="/model3/Expand" type="Broadcast" version="opset3">
			<data mode="bidirectional" />
			<input>
				<port id="0" precision="FP32">
					<dim>1</dim>
					<dim>84</dim>
				</port>
				<port id="1" precision="I64">
					<dim>2</dim>
				</port>
			</input>
			<output>
				<port id="2" precision="FP32" names="/model3/Expand_output_0">
					<dim>1</dim>
					<dim>84</dim>
				</port>
			</output>
		</layer>
		<layer id="295" name="Constant_10946" type="Const" version="opset1">
			<data element_type="i64" shape="3" offset="748542" size="24" />
			<rt_info>
				<attribute name="precise" version="0" />
			</rt_info>
			<output>
				<port id="0" precision="I64">
					<dim>3</dim>
				</port>
			</output>
		</layer>
		<layer id="296" name="/model3/Reshape_2" type="Reshape" version="opset1">
			<data special_zero="true" />
			<input>
				<port id="0" precision="FP32">
					<dim>1</dim>
					<dim>84</dim>
				</port>
				<port id="1" precision="I64">
					<dim>3</dim>
				</port>
			</input>
			<output>
				<port id="2" precision="FP32" names="/model3/Reshape_2_output_0">
					<dim>1</dim>
					<dim>1</dim>
					<dim>84</dim>
				</port>
			</output>
		</layer>
		<layer id="297" name="Constant_10947" type="Const" version="opset1">
			<data element_type="i64" shape="3" offset="5352" size="24" />
			<rt_info>
				<attribute name="precise" version="0" />
			</rt_info>
			<output>
				<port id="0" precision="I64">
					<dim>3</dim>
				</port>
			</output>
		</layer>
		<layer id="298" name="/model3/Reshape" type="Reshape" version="opset1">
			<data special_zero="true" />
			<input>
				<port id="0" precision="FP32">
					<dim>1</dim>
					<dim>60</dim>
					<dim>42</dim>
					<dim>2</dim>
				</port>
				<port id="1" precision="I64">
					<dim>3</dim>
				</port>
			</input>
			<output>
				<port id="2" precision="FP32" names="/model3/Reshape_output_0">
					<dim>1</dim>
					<dim>60</dim>
					<dim>84</dim>
				</port>
			</output>
		</layer>
		<layer id="299" name="/model3/Concat_3" type="Concat" version="opset1">
			<data axis="1" />
			<input>
				<port id="0" precision="FP32">
					<dim>1</dim>
					<dim>1</dim>
					<dim>84</dim>
				</port>
				<port id="1" precision="FP32">
					<dim>1</dim>
					<dim>60</dim>
					<dim>84</dim>
				</port>
			</input>
			<output>
				<port id="2" precision="FP32" names="/model3/Concat_3_output_0">
					<dim>1</dim>
					<dim>61</dim>
					<dim>84</dim>
				</port>
			</output>
		</layer>
		<layer id="300" name="/model3/Add_1" type="Add" version="opset1">
			<data auto_broadcast="numpy" />
			<input>
				<port id="0" precision="FP32">
					<dim>1</dim>
					<dim>61</dim>
					<dim>84</dim>
				</port>
				<port id="1" precision="FP32">
					<dim>1</dim>
					<dim>61</dim>
					<dim>84</dim>
				</port>
			</input>
			<output>
				<port id="2" precision="FP32" names="/model3/Add_1_output_0">
					<dim>1</dim>
					<dim>61</dim>
					<dim>84</dim>
				</port>
			</output>
		</layer>
		<layer id="301" name="Constant_10173_compressed" type="Const" version="opset1">
			<data element_type="f16" shape="1, 1, 252" offset="748566" size="504" />
			<output>
				<port id="0" precision="FP16">
					<dim>1</dim>
					<dim>1</dim>
					<dim>252</dim>
				</port>
			</output>
		</layer>
		<layer id="302" name="Constant_10173" type="Convert" version="opset1">
			<data destination_type="f32" />
			<rt_info>
				<attribute name="decompression" version="0" />
			</rt_info>
			<input>
				<port id="0" precision="FP16">
					<dim>1</dim>
					<dim>1</dim>
					<dim>252</dim>
				</port>
			</input>
			<output>
				<port id="1" precision="FP32">
					<dim>1</dim>
					<dim>1</dim>
					<dim>252</dim>
				</port>
			</output>
		</layer>
		<layer id="303" name="Transpose_9896_compressed" type="Const" version="opset1">
			<data element_type="f16" shape="252, 84" offset="749070" size="42336" />
			<output>
				<port id="0" precision="FP16">
					<dim>252</dim>
					<dim>84</dim>
				</port>
			</output>
		</layer>
		<layer id="304" name="Transpose_9896" type="Convert" version="opset1">
			<data destination_type="f32" />
			<rt_info>
				<attribute name="decompression" version="0" />
			</rt_info>
			<input>
				<port id="0" precision="FP16">
					<dim>252</dim>
					<dim>84</dim>
				</port>
			</input>
			<output>
				<port id="1" precision="FP32">
					<dim>252</dim>
					<dim>84</dim>
				</port>
			</output>
		</layer>
		<layer id="305" name="/model3/encoder/layers.0/self_attn/MatMul" type="MatMul" version="opset1">
			<data transpose_a="false" transpose_b="true" />
			<input>
				<port id="0" precision="FP32">
					<dim>1</dim>
					<dim>61</dim>
					<dim>84</dim>
				</port>
				<port id="1" precision="FP32">
					<dim>252</dim>
					<dim>84</dim>
				</port>
			</input>
			<output>
				<port id="2" precision="FP32" names="/model3/encoder/layers.0/self_attn/MatMul_output_0">
					<dim>1</dim>
					<dim>61</dim>
					<dim>252</dim>
				</port>
			</output>
		</layer>
		<layer id="306" name="/model3/encoder/layers.0/self_attn/Add" type="Add" version="opset1">
			<data auto_broadcast="numpy" />
			<input>
				<port id="0" precision="FP32">
					<dim>1</dim>
					<dim>1</dim>
					<dim>252</dim>
				</port>
				<port id="1" precision="FP32">
					<dim>1</dim>
					<dim>61</dim>
					<dim>252</dim>
				</port>
			</input>
			<output>
				<port id="2" precision="FP32" names="/model3/encoder/layers.0/self_attn/Add_output_0">
					<dim>1</dim>
					<dim>61</dim>
					<dim>252</dim>
				</port>
			</output>
		</layer>
		<layer id="307" name="Constant_10948" type="Const" version="opset1">
			<data element_type="i64" shape="4" offset="791406" size="32" />
			<rt_info>
				<attribute name="precise" version="0" />
			</rt_info>
			<output>
				<port id="0" precision="I64">
					<dim>4</dim>
				</port>
			</output>
		</layer>
		<layer id="308" name="/model3/encoder/layers.0/self_attn/Reshape_2" type="Reshape" version="opset1">
			<data special_zero="true" />
			<input>
				<port id="0" precision="FP32">
					<dim>1</dim>
					<dim>61</dim>
					<dim>252</dim>
				</port>
				<port id="1" precision="I64">
					<dim>4</dim>
				</port>
			</input>
			<output>
				<port id="2" precision="FP32" names="/model3/encoder/layers.0/self_attn/Reshape_2_output_0">
					<dim>1</dim>
					<dim>61</dim>
					<dim>3</dim>
					<dim>84</dim>
				</port>
			</output>
		</layer>
		<layer id="309" name="/model3/encoder/layers.0/self_attn/Constant_16" type="Const" version="opset1">
			<data element_type="i64" shape="1" offset="5124" size="8" />
			<output>
				<port id="0" precision="I64" names="/model3/encoder/layers.0/self_attn/Constant_16_output_0">
					<dim>1</dim>
				</port>
			</output>
		</layer>
		<layer id="310" name="/model3/encoder/layers.0/self_attn/Unsqueeze_1" type="Unsqueeze" version="opset1">
			<input>
				<port id="0" precision="FP32">
					<dim>1</dim>
					<dim>61</dim>
					<dim>3</dim>
					<dim>84</dim>
				</port>
				<port id="1" precision="I64">
					<dim>1</dim>
				</port>
			</input>
			<output>
				<port id="2" precision="FP32" names="/model3/encoder/layers.0/self_attn/Unsqueeze_1_output_0">
					<dim>1</dim>
					<dim>1</dim>
					<dim>61</dim>
					<dim>3</dim>
					<dim>84</dim>
				</port>
			</output>
		</layer>
		<layer id="311" name="Constant_9594" type="Const" version="opset1">
			<data element_type="i64" shape="1" offset="5124" size="8" />
			<output>
				<port id="0" precision="I64">
					<dim>1</dim>
				</port>
			</output>
		</layer>
		<layer id="312" name="Squeeze_9595" type="Squeeze" version="opset1">
			<input>
				<port id="0" precision="FP32">
					<dim>1</dim>
					<dim>1</dim>
					<dim>61</dim>
					<dim>3</dim>
					<dim>84</dim>
				</port>
				<port id="1" precision="I64">
					<dim>1</dim>
				</port>
			</input>
			<output>
				<port id="2" precision="FP32">
					<dim>1</dim>
					<dim>61</dim>
					<dim>3</dim>
					<dim>84</dim>
				</port>
			</output>
		</layer>
		<layer id="313" name="Constant_9596" type="Const" version="opset1">
			<data element_type="i64" shape="4" offset="16244" size="32" />
			<output>
				<port id="0" precision="I64">
					<dim>4</dim>
				</port>
			</output>
		</layer>
		<layer id="314" name="/model3/encoder/layers.0/self_attn/Squeeze_1" type="Transpose" version="opset1">
			<input>
				<port id="0" precision="FP32">
					<dim>1</dim>
					<dim>61</dim>
					<dim>3</dim>
					<dim>84</dim>
				</port>
				<port id="1" precision="I64">
					<dim>4</dim>
				</port>
			</input>
			<output>
				<port id="2" precision="FP32" names="/model3/encoder/layers.0/self_attn/Squeeze_1_output_0">
					<dim>3</dim>
					<dim>1</dim>
					<dim>61</dim>
					<dim>84</dim>
				</port>
			</output>
		</layer>
		<layer id="315" name="Constant_1426" type="Const" version="opset1">
			<data element_type="i64" shape="" offset="5124" size="8" />
			<output>
				<port id="0" precision="I64" />
			</output>
		</layer>
		<layer id="316" name="/model3/encoder/layers.0/self_attn/Gather_3" type="Gather" version="opset8">
			<data batch_dims="0" />
			<input>
				<port id="0" precision="FP32">
					<dim>3</dim>
					<dim>1</dim>
					<dim>61</dim>
					<dim>84</dim>
				</port>
				<port id="1" precision="I64" />
				<port id="2" precision="I64" />
			</input>
			<output>
				<port id="3" precision="FP32" names="/model3/encoder/layers.0/self_attn/Gather_3_output_0">
					<dim>1</dim>
					<dim>61</dim>
					<dim>84</dim>
				</port>
			</output>
		</layer>
		<layer id="317" name="Constant_10949" type="Const" version="opset1">
			<data element_type="i64" shape="3" offset="791438" size="24" />
			<rt_info>
				<attribute name="precise" version="0" />
			</rt_info>
			<output>
				<port id="0" precision="I64">
					<dim>3</dim>
				</port>
			</output>
		</layer>
		<layer id="318" name="/model3/encoder/layers.0/self_attn/Reshape_3" type="Reshape" version="opset1">
			<data special_zero="true" />
			<input>
				<port id="0" precision="FP32">
					<dim>1</dim>
					<dim>61</dim>
					<dim>84</dim>
				</port>
				<port id="1" precision="I64">
					<dim>3</dim>
				</port>
			</input>
			<output>
				<port id="2" precision="FP32" names="/model3/encoder/layers.0/self_attn/Reshape_3_output_0">
					<dim>1</dim>
					<dim>61</dim>
					<dim>84</dim>
				</port>
			</output>
		</layer>
		<layer id="319" name="Constant_1486" type="Const" version="opset1">
			<data element_type="i64" shape="3" offset="16300" size="24" />
			<output>
				<port id="0" precision="I64">
					<dim>3</dim>
				</port>
			</output>
		</layer>
		<layer id="320" name="/model3/encoder/layers.0/self_attn/Transpose_1" type="Transpose" version="opset1">
			<input>
				<port id="0" precision="FP32">
					<dim>1</dim>
					<dim>61</dim>
					<dim>84</dim>
				</port>
				<port id="1" precision="I64">
					<dim>3</dim>
				</port>
			</input>
			<output>
				<port id="2" precision="FP32" names="/model3/encoder/layers.0/self_attn/Transpose_1_output_0">
					<dim>61</dim>
					<dim>1</dim>
					<dim>84</dim>
				</port>
			</output>
		</layer>
		<layer id="321" name="Constant_10950" type="Const" version="opset1">
			<data element_type="i64" shape="4" offset="791462" size="32" />
			<rt_info>
				<attribute name="precise" version="0" />
			</rt_info>
			<output>
				<port id="0" precision="I64">
					<dim>4</dim>
				</port>
			</output>
		</layer>
		<layer id="322" name="/model3/encoder/layers.0/self_attn/Reshape_6" type="Reshape" version="opset1">
			<data special_zero="true" />
			<input>
				<port id="0" precision="FP32">
					<dim>61</dim>
					<dim>1</dim>
					<dim>84</dim>
				</port>
				<port id="1" precision="I64">
					<dim>4</dim>
				</port>
			</input>
			<output>
				<port id="2" precision="FP32" names="/model3/encoder/layers.0/self_attn/Reshape_6_output_0">
					<dim>61</dim>
					<dim>1</dim>
					<dim>1</dim>
					<dim>84</dim>
				</port>
			</output>
		</layer>
		<layer id="323" name="/model3/encoder/layers.0/self_attn/Constant_26_compressed" type="Const" version="opset1">
			<data element_type="f16" shape="1" offset="16356" size="2" />
			<output>
				<port id="0" precision="FP16">
					<dim>1</dim>
				</port>
			</output>
		</layer>
		<layer id="324" name="/model3/encoder/layers.0/self_attn/Constant_26" type="Convert" version="opset1">
			<data destination_type="f32" />
			<rt_info>
				<attribute name="decompression" version="0" />
			</rt_info>
			<input>
				<port id="0" precision="FP16">
					<dim>1</dim>
				</port>
			</input>
			<output>
				<port id="1" precision="FP32" names="/model3/encoder/layers.0/self_attn/Constant_26_output_0">
					<dim>1</dim>
				</port>
			</output>
		</layer>
		<layer id="325" name="/model3/encoder/layers.0/self_attn/Shape_6" type="ShapeOf" version="opset3">
			<data output_type="i64" />
			<input>
				<port id="0" precision="FP32">
					<dim>61</dim>
					<dim>1</dim>
					<dim>1</dim>
					<dim>84</dim>
				</port>
			</input>
			<output>
				<port id="1" precision="I64" names="/model3/encoder/layers.0/self_attn/Shape_6_output_0">
					<dim>4</dim>
				</port>
			</output>
		</layer>
		<layer id="326" name="/model3/encoder/layers.0/self_attn/Constant_24" type="Const" version="opset1">
			<data element_type="i64" shape="1" offset="5156" size="8" />
			<output>
				<port id="0" precision="I64" names="/model3/encoder/layers.0/self_attn/Constant_24_output_0">
					<dim>1</dim>
				</port>
			</output>
		</layer>
		<layer id="327" name="/model3/encoder/layers.0/self_attn/Constant_25" type="Const" version="opset1">
			<data element_type="i64" shape="1" offset="16358" size="8" />
			<output>
				<port id="0" precision="I64" names="/model3/encoder/layers.0/self_attn/Constant_25_output_0">
					<dim>1</dim>
				</port>
			</output>
		</layer>
		<layer id="328" name="Broadcast_1772" type="Const" version="opset1">
			<data element_type="i64" shape="1" offset="5140" size="8" />
			<output>
				<port id="0" precision="I64">
					<dim>1</dim>
				</port>
			</output>
		</layer>
		<layer id="329" name="Constant_1776" type="Const" version="opset1">
			<data element_type="i64" shape="1" offset="5124" size="8" />
			<output>
				<port id="0" precision="I64">
					<dim>1</dim>
				</port>
			</output>
		</layer>
		<layer id="330" name="/model3/encoder/layers.0/self_attn/Slice_3" type="Slice" version="opset8">
			<input>
				<port id="0" precision="I64">
					<dim>4</dim>
				</port>
				<port id="1" precision="I64">
					<dim>1</dim>
				</port>
				<port id="2" precision="I64">
					<dim>1</dim>
				</port>
				<port id="3" precision="I64">
					<dim>1</dim>
				</port>
				<port id="4" precision="I64">
					<dim>1</dim>
				</port>
			</input>
			<output>
				<port id="5" precision="I64" names="/model3/encoder/layers.0/self_attn/Slice_3_output_0">
					<dim>1</dim>
				</port>
			</output>
		</layer>
		<layer id="331" name="/model3/encoder/layers.0/self_attn/Cast_2" type="Convert" version="opset1">
			<data destination_type="f32" />
			<input>
				<port id="0" precision="I64">
					<dim>1</dim>
				</port>
			</input>
			<output>
				<port id="1" precision="FP32" names="/model3/encoder/layers.0/self_attn/Cast_2_output_0">
					<dim>1</dim>
				</port>
			</output>
		</layer>
		<layer id="332" name="/model3/encoder/layers.0/self_attn/Sqrt" type="Sqrt" version="opset1">
			<input>
				<port id="0" precision="FP32">
					<dim>1</dim>
				</port>
			</input>
			<output>
				<port id="1" precision="FP32" names="/model3/encoder/layers.0/self_attn/Sqrt_output_0">
					<dim>1</dim>
				</port>
			</output>
		</layer>
		<layer id="333" name="/model3/encoder/layers.0/self_attn/Div_1" type="Divide" version="opset1">
			<data auto_broadcast="numpy" m_pythondiv="true" />
			<input>
				<port id="0" precision="FP32">
					<dim>1</dim>
				</port>
				<port id="1" precision="FP32">
					<dim>1</dim>
				</port>
			</input>
			<output>
				<port id="2" precision="FP32" names="/model3/encoder/layers.0/self_attn/Cast_3_output_0,/model3/encoder/layers.0/self_attn/Div_1_output_0">
					<dim>1</dim>
				</port>
			</output>
		</layer>
		<layer id="334" name="/model3/encoder/layers.0/self_attn/Sqrt_1" type="Sqrt" version="opset1">
			<input>
				<port id="0" precision="FP32">
					<dim>1</dim>
				</port>
			</input>
			<output>
				<port id="1" precision="FP32" names="/model3/encoder/layers.0/self_attn/Sqrt_1_output_0,/model3/encoder/layers.0/self_attn/Sqrt_2_output_0">
					<dim>1</dim>
				</port>
			</output>
		</layer>
		<layer id="335" name="/model3/encoder/layers.0/self_attn/Mul" type="Multiply" version="opset1">
			<data auto_broadcast="numpy" />
			<input>
				<port id="0" precision="FP32">
					<dim>61</dim>
					<dim>1</dim>
					<dim>1</dim>
					<dim>84</dim>
				</port>
				<port id="1" precision="FP32">
					<dim>1</dim>
				</port>
			</input>
			<output>
				<port id="2" precision="FP32" names="/model3/encoder/layers.0/self_attn/Mul_output_0">
					<dim>61</dim>
					<dim>1</dim>
					<dim>1</dim>
					<dim>84</dim>
				</port>
			</output>
		</layer>
		<layer id="336" name="Constant_1428" type="Const" version="opset1">
			<data element_type="i64" shape="" offset="5124" size="8" />
			<output>
				<port id="0" precision="I64" />
			</output>
		</layer>
		<layer id="337" name="/model3/encoder/layers.0/self_attn/Gather_4" type="Gather" version="opset8">
			<data batch_dims="0" />
			<input>
				<port id="0" precision="FP32">
					<dim>3</dim>
					<dim>1</dim>
					<dim>61</dim>
					<dim>84</dim>
				</port>
				<port id="1" precision="I64" />
				<port id="2" precision="I64" />
			</input>
			<output>
				<port id="3" precision="FP32" names="/model3/encoder/layers.0/self_attn/Gather_4_output_0">
					<dim>1</dim>
					<dim>61</dim>
					<dim>84</dim>
				</port>
			</output>
		</layer>
		<layer id="338" name="Constant_10951" type="Const" version="opset1">
			<data element_type="i64" shape="3" offset="791494" size="24" />
			<rt_info>
				<attribute name="precise" version="0" />
			</rt_info>
			<output>
				<port id="0" precision="I64">
					<dim>3</dim>
				</port>
			</output>
		</layer>
		<layer id="339" name="/model3/encoder/layers.0/self_attn/Reshape_4" type="Reshape" version="opset1">
			<data special_zero="true" />
			<input>
				<port id="0" precision="FP32">
					<dim>1</dim>
					<dim>61</dim>
					<dim>84</dim>
				</port>
				<port id="1" precision="I64">
					<dim>3</dim>
				</port>
			</input>
			<output>
				<port id="2" precision="FP32" names="/model3/encoder/layers.0/self_attn/Reshape_4_output_0">
					<dim>1</dim>
					<dim>61</dim>
					<dim>84</dim>
				</port>
			</output>
		</layer>
		<layer id="340" name="Constant_9904" type="Const" version="opset1">
			<data element_type="i64" shape="3" offset="16390" size="24" />
			<rt_info>
				<attribute name="precise" version="0" />
			</rt_info>
			<output>
				<port id="0" precision="I64">
					<dim>3</dim>
				</port>
			</output>
		</layer>
		<layer id="341" name="/model3/encoder/layers.0/self_attn/Transpose_2" type="Reshape" version="opset1">
			<data special_zero="true" />
			<input>
				<port id="0" precision="FP32">
					<dim>1</dim>
					<dim>61</dim>
					<dim>84</dim>
				</port>
				<port id="1" precision="I64">
					<dim>3</dim>
				</port>
			</input>
			<output>
				<port id="2" precision="FP32" names="/model3/encoder/layers.0/self_attn/Transpose_2_output_0">
					<dim>61</dim>
					<dim>1</dim>
					<dim>84</dim>
				</port>
			</output>
		</layer>
		<layer id="342" name="Constant_10952" type="Const" version="opset1">
			<data element_type="i64" shape="4" offset="791518" size="32" />
			<rt_info>
				<attribute name="precise" version="0" />
			</rt_info>
			<output>
				<port id="0" precision="I64">
					<dim>4</dim>
				</port>
			</output>
		</layer>
		<layer id="343" name="/model3/encoder/layers.0/self_attn/Reshape_7" type="Reshape" version="opset1">
			<data special_zero="true" />
			<input>
				<port id="0" precision="FP32">
					<dim>61</dim>
					<dim>1</dim>
					<dim>84</dim>
				</port>
				<port id="1" precision="I64">
					<dim>4</dim>
				</port>
			</input>
			<output>
				<port id="2" precision="FP32" names="/model3/encoder/layers.0/self_attn/Reshape_7_output_0">
					<dim>61</dim>
					<dim>1</dim>
					<dim>1</dim>
					<dim>84</dim>
				</port>
			</output>
		</layer>
		<layer id="344" name="Constant_9906" type="Const" version="opset1">
			<data element_type="i64" shape="4" offset="791550" size="32" />
			<rt_info>
				<attribute name="precise" version="0" />
			</rt_info>
			<output>
				<port id="0" precision="I64">
					<dim>4</dim>
				</port>
			</output>
		</layer>
		<layer id="345" name="/model3/encoder/layers.0/self_attn/Transpose_4" type="Reshape" version="opset1">
			<data special_zero="true" />
			<input>
				<port id="0" precision="FP32">
					<dim>61</dim>
					<dim>1</dim>
					<dim>1</dim>
					<dim>84</dim>
				</port>
				<port id="1" precision="I64">
					<dim>4</dim>
				</port>
			</input>
			<output>
				<port id="2" precision="FP32" names="/model3/encoder/layers.0/self_attn/Transpose_4_output_0">
					<dim>61</dim>
					<dim>1</dim>
					<dim>84</dim>
					<dim>1</dim>
				</port>
			</output>
		</layer>
		<layer id="346" name="/model3/encoder/layers.0/self_attn/Mul_1" type="Multiply" version="opset1">
			<data auto_broadcast="numpy" />
			<input>
				<port id="0" precision="FP32">
					<dim>61</dim>
					<dim>1</dim>
					<dim>84</dim>
					<dim>1</dim>
				</port>
				<port id="1" precision="FP32">
					<dim>1</dim>
				</port>
			</input>
			<output>
				<port id="2" precision="FP32" names="/model3/encoder/layers.0/self_attn/Mul_1_output_0">
					<dim>61</dim>
					<dim>1</dim>
					<dim>84</dim>
					<dim>1</dim>
				</port>
			</output>
		</layer>
		<layer id="347" name="/model3/encoder/layers.0/self_attn/MatMul_1" type="MatMul" version="opset1">
			<data transpose_a="false" transpose_b="false" />
			<input>
				<port id="0" precision="FP32">
					<dim>61</dim>
					<dim>1</dim>
					<dim>1</dim>
					<dim>84</dim>
				</port>
				<port id="1" precision="FP32">
					<dim>61</dim>
					<dim>1</dim>
					<dim>84</dim>
					<dim>1</dim>
				</port>
			</input>
			<output>
				<port id="2" precision="FP32" names="/model3/encoder/layers.0/self_attn/MatMul_1_output_0">
					<dim>61</dim>
					<dim>1</dim>
					<dim>1</dim>
					<dim>1</dim>
				</port>
			</output>
		</layer>
		<layer id="348" name="/model3/encoder/layers.0/self_attn/Softmax" type="SoftMax" version="opset8">
			<data axis="-1" />
			<input>
				<port id="0" precision="FP32">
					<dim>61</dim>
					<dim>1</dim>
					<dim>1</dim>
					<dim>1</dim>
				</port>
			</input>
			<output>
				<port id="1" precision="FP32" names="/model3/encoder/layers.0/self_attn/Softmax_output_0">
					<dim>61</dim>
					<dim>1</dim>
					<dim>1</dim>
					<dim>1</dim>
				</port>
			</output>
		</layer>
		<layer id="349" name="Constant_1430" type="Const" version="opset1">
			<data element_type="i64" shape="" offset="5124" size="8" />
			<output>
				<port id="0" precision="I64" />
			</output>
		</layer>
		<layer id="350" name="/model3/encoder/layers.0/self_attn/Gather_5" type="Gather" version="opset8">
			<data batch_dims="0" />
			<input>
				<port id="0" precision="FP32">
					<dim>3</dim>
					<dim>1</dim>
					<dim>61</dim>
					<dim>84</dim>
				</port>
				<port id="1" precision="I64" />
				<port id="2" precision="I64" />
			</input>
			<output>
				<port id="3" precision="FP32" names="/model3/encoder/layers.0/self_attn/Gather_5_output_0">
					<dim>1</dim>
					<dim>61</dim>
					<dim>84</dim>
				</port>
			</output>
		</layer>
		<layer id="351" name="Constant_10953" type="Const" version="opset1">
			<data element_type="i64" shape="3" offset="791494" size="24" />
			<rt_info>
				<attribute name="precise" version="0" />
			</rt_info>
			<output>
				<port id="0" precision="I64">
					<dim>3</dim>
				</port>
			</output>
		</layer>
		<layer id="352" name="/model3/encoder/layers.0/self_attn/Reshape_5" type="Reshape" version="opset1">
			<data special_zero="true" />
			<input>
				<port id="0" precision="FP32">
					<dim>1</dim>
					<dim>61</dim>
					<dim>84</dim>
				</port>
				<port id="1" precision="I64">
					<dim>3</dim>
				</port>
			</input>
			<output>
				<port id="2" precision="FP32" names="/model3/encoder/layers.0/self_attn/Reshape_5_output_0">
					<dim>1</dim>
					<dim>61</dim>
					<dim>84</dim>
				</port>
			</output>
		</layer>
		<layer id="353" name="Constant_9910" type="Const" version="opset1">
			<data element_type="i64" shape="3" offset="16390" size="24" />
			<rt_info>
				<attribute name="precise" version="0" />
			</rt_info>
			<output>
				<port id="0" precision="I64">
					<dim>3</dim>
				</port>
			</output>
		</layer>
		<layer id="354" name="/model3/encoder/layers.0/self_attn/Transpose_3" type="Reshape" version="opset1">
			<data special_zero="true" />
			<input>
				<port id="0" precision="FP32">
					<dim>1</dim>
					<dim>61</dim>
					<dim>84</dim>
				</port>
				<port id="1" precision="I64">
					<dim>3</dim>
				</port>
			</input>
			<output>
				<port id="2" precision="FP32" names="/model3/encoder/layers.0/self_attn/Transpose_3_output_0">
					<dim>61</dim>
					<dim>1</dim>
					<dim>84</dim>
				</port>
			</output>
		</layer>
		<layer id="355" name="Constant_10954" type="Const" version="opset1">
			<data element_type="i64" shape="4" offset="791518" size="32" />
			<rt_info>
				<attribute name="precise" version="0" />
			</rt_info>
			<output>
				<port id="0" precision="I64">
					<dim>4</dim>
				</port>
			</output>
		</layer>
		<layer id="356" name="/model3/encoder/layers.0/self_attn/Reshape_8" type="Reshape" version="opset1">
			<data special_zero="true" />
			<input>
				<port id="0" precision="FP32">
					<dim>61</dim>
					<dim>1</dim>
					<dim>84</dim>
				</port>
				<port id="1" precision="I64">
					<dim>4</dim>
				</port>
			</input>
			<output>
				<port id="2" precision="FP32" names="/model3/encoder/layers.0/self_attn/Reshape_8_output_0">
					<dim>61</dim>
					<dim>1</dim>
					<dim>1</dim>
					<dim>84</dim>
				</port>
			</output>
		</layer>
		<layer id="357" name="/model3/encoder/layers.0/self_attn/MatMul_2" type="MatMul" version="opset1">
			<data transpose_a="false" transpose_b="false" />
			<input>
				<port id="0" precision="FP32">
					<dim>61</dim>
					<dim>1</dim>
					<dim>1</dim>
					<dim>1</dim>
				</port>
				<port id="1" precision="FP32">
					<dim>61</dim>
					<dim>1</dim>
					<dim>1</dim>
					<dim>84</dim>
				</port>
			</input>
			<output>
				<port id="2" precision="FP32" names="/model3/encoder/layers.0/self_attn/MatMul_2_output_0">
					<dim>61</dim>
					<dim>1</dim>
					<dim>1</dim>
					<dim>84</dim>
				</port>
			</output>
		</layer>
		<layer id="358" name="Constant_1792" type="Const" version="opset1">
			<data element_type="i64" shape="4" offset="16244" size="32" />
			<output>
				<port id="0" precision="I64">
					<dim>4</dim>
				</port>
			</output>
		</layer>
		<layer id="359" name="/model3/encoder/layers.0/self_attn/Transpose_5" type="Transpose" version="opset1">
			<input>
				<port id="0" precision="FP32">
					<dim>61</dim>
					<dim>1</dim>
					<dim>1</dim>
					<dim>84</dim>
				</port>
				<port id="1" precision="I64">
					<dim>4</dim>
				</port>
			</input>
			<output>
				<port id="2" precision="FP32" names="/model3/encoder/layers.0/self_attn/Transpose_5_output_0">
					<dim>1</dim>
					<dim>61</dim>
					<dim>1</dim>
					<dim>84</dim>
				</port>
			</output>
		</layer>
		<layer id="360" name="Concat_4150" type="Const" version="opset1">
			<data element_type="i64" shape="2" offset="791582" size="16" />
			<rt_info>
				<attribute name="precise" version="0" />
			</rt_info>
			<output>
				<port id="0" precision="I64">
					<dim>2</dim>
				</port>
			</output>
		</layer>
		<layer id="361" name="/model3/encoder/layers.0/self_attn/Reshape_9" type="Reshape" version="opset1">
			<data special_zero="true" />
			<input>
				<port id="0" precision="FP32">
					<dim>1</dim>
					<dim>61</dim>
					<dim>1</dim>
					<dim>84</dim>
				</port>
				<port id="1" precision="I64">
					<dim>2</dim>
				</port>
			</input>
			<output>
				<port id="2" precision="FP32" names="/model3/encoder/layers.0/self_attn/Reshape_9_output_0">
					<dim>61</dim>
					<dim>84</dim>
				</port>
			</output>
		</layer>
		<layer id="362" name="model3.encoder.layers.0.self_attn.out_proj.weight_compressed" type="Const" version="opset1">
			<data element_type="f16" shape="84, 84" offset="791598" size="14112" />
			<output>
				<port id="0" precision="FP16">
					<dim>84</dim>
					<dim>84</dim>
				</port>
			</output>
		</layer>
		<layer id="363" name="model3.encoder.layers.0.self_attn.out_proj.weight" type="Convert" version="opset1">
			<data destination_type="f32" />
			<rt_info>
				<attribute name="decompression" version="0" />
			</rt_info>
			<input>
				<port id="0" precision="FP16">
					<dim>84</dim>
					<dim>84</dim>
				</port>
			</input>
			<output>
				<port id="1" precision="FP32" names="model3.encoder.layers.0.self_attn.out_proj.weight">
					<dim>84</dim>
					<dim>84</dim>
				</port>
			</output>
		</layer>
		<layer id="364" name="/model3/encoder/layers.0/self_attn/Gemm/WithoutBiases" type="MatMul" version="opset1">
			<data transpose_a="false" transpose_b="true" />
			<input>
				<port id="0" precision="FP32">
					<dim>61</dim>
					<dim>84</dim>
				</port>
				<port id="1" precision="FP32">
					<dim>84</dim>
					<dim>84</dim>
				</port>
			</input>
…
		<layer id="369" name="/model3/encoder/layers.0/self_attn/Reshape_10" type="Reshape" version="opset1">
			<data special_zero="true" />
			<input>
				<port id="0" precision="FP32">
					<dim>61</dim>
					<dim>84</dim>
				</port>
				<port id="1" precision="I64">
					<dim>3</dim>
				</port>
			</input>
			<output>
				<port id="2" precision="FP32" names="/model3/encoder/layers.0/self_attn/Reshape_10_output_0">
					<dim>1</dim>
					<dim>61</dim>
					<dim>84</dim>
				</port>
			</output>
		</layer>
		<layer id="370" name="/model3/encoder/layers.0/Add" type="Add" version="opset1">
			<data auto_broadcast="numpy" />
			<input>
				<port id="0" precision="FP32">
					<dim>1</dim>
					<dim>61</dim>
					<dim>84</dim>
				</port>
				<port id="1" precision="FP32">
					<dim>1</dim>
					<dim>61</dim>
					<dim>84</dim>
				</port>
			</input>
			<output>
				<port id="2" precision="FP32" names="/model3/encoder/layers.0/Add_output_0">
					<dim>1</dim>
					<dim>61</dim>
					<dim>84</dim>
				</port>
			</output>
		</layer>
		<layer id="371" name="Constant_1820" type="Const" version="opset1">
			<data element_type="i64" shape="1" offset="5156" size="8" />
			<output>
				<port id="0" precision="I64">
					<dim>1</dim>
				</port>
			</output>
		</layer>
		<layer id="372" name="/model3/encoder/layers.0/norm1/Div" type="MVN" version="opset6">
			<data eps="9.9999997473787516e-06" normalize_variance="true" eps_mode="INSIDE_SQRT" />
			<input>
				<port id="0" precision="FP32">
					<dim>1</dim>
					<dim>61</dim>
					<dim>84</dim>
				</port>
				<port id="1" precision="I64">
					<dim>1</dim>
				</port>
			</input>
			<output>
				<port id="2" precision="FP32" names="/model3/encoder/layers.0/norm1/Div_output_0">
					<dim>1</dim>
					<dim>61</dim>
					<dim>84</dim>
				</port>
			</output>
		</layer>
		<layer id="373" name="Constant_10175_compressed" type="Const" version="opset1">
			<data element_type="f16" shape="1, 1, 84" offset="805878" size="168" />
			<output>
				<port id="0" precision="FP16">
					<dim>1</dim>
					<dim>1</dim>
					<dim>84</dim>
				</port>
			</output>
		</layer>
		<layer id="374" name="Constant_10175" type="Convert" version="opset1">
			<data destination_type="f32" />
			<rt_info>
				<attribute name="decompression" version="0" />
			</rt_info>
			<input>
				<port id="0" precision="FP16">
					<dim>1</dim>
					<dim>1</dim>
					<dim>84</dim>
				</port>
			</input>
			<output>
				<port id="1" precision="FP32">
					<dim>1</dim>
					<dim>1</dim>
					<dim>84</dim>
				</port>
			</output>
		</layer>
		<layer id="375" name="/model3/encoder/layers.0/norm1/Mul" type="Multiply" version="opset1">
			<data auto_broadcast="numpy" />
			<input>
				<port id="0" precision="FP32">
					<dim>1</dim>
					<dim>61</dim>
					<dim>84</dim>
				</port>
				<port id="1" precision="FP32">
					<dim>1</dim>
					<dim>1</dim>
					<dim>84</dim>
				</port>
			</input>
			<output>
				<port id="2" precision="FP32" names="/model3/encoder/layers.0/norm1/Mul_output_0">
					<dim>1</dim>
					<dim>61</dim>
					<dim>84</dim>
				</port>
			</output>
		</layer>
		<layer id="376" name="Constant_10176_compressed" type="Const" version="opset1">
			<data element_type="f16" shape="1, 1, 84" offset="806046" size="168" />
			<output>
				<port id="0" precision="FP16">
					<dim>1</dim>
					<dim>1</dim>
					<dim>84</dim>
				</port>
			</output>
		</layer>
		<layer id="377" name="Constant_10176" type="Convert" version="opset1">
			<data destination_type="f32" />
			<rt_info>
				<attribute name="decompression" version="0" />
			</rt_info>
			<input>
				<port id="0" precision="FP16">
					<dim>1</dim>
					<dim>1</dim>
					<dim>84</dim>
				</port>
			</input>
			<output>
				<port id="1" precision="FP32">
					<dim>1</dim>
					<dim>1</dim>
					<dim>84</dim>
				</port>
			</output>
		</layer>
		<layer id="378" name="/model3/encoder/layers.0/norm1/Add_1" type="Add" version="opset1">
			<data auto_broadcast="numpy" />
			<input>
				<port id="0" precision="FP32">
					<dim>1</dim>
					<dim>61</dim>
					<dim>84</dim>
				</port>
				<port id="1" precision="FP32">
					<dim>1</dim>
					<dim>1</dim>
					<dim>84</dim>
				</port>
			</input>
			<output>
				<port id="2" precision="FP32" names="/model3/encoder/layers.0/norm1/Add_1_output_0">
					<dim>1</dim>
					<dim>61</dim>
					<dim>84</dim>
				</port>
			</output>
		</layer>
		<layer id="379" name="Constant_10178_compressed" type="Const" version="opset1">
			<data element_type="f16" shape="1, 1, 84" offset="806214" size="168" />
			<output>
				<port id="0" precision="FP16">
					<dim>1</dim>
					<dim>1</dim>
					<dim>84</dim>
				</port>
			</output>
		</layer>
		<layer id="380" name="Constant_10178" type="Convert" version="opset1">
			<data destination_type="f32" />
			<rt_info>
				<attribute name="decompression" version="0" />
			</rt_info>
			<input>
				<port id="0" precision="FP16">
					<dim>1</dim>
					<dim>1</dim>
					<dim>84</dim>
				</port>
			</input>
			<output>
				<port id="1" precision="FP32">
					<dim>1</dim>
					<dim>1</dim>
					<dim>84</dim>
				</port>
			</output>
		</layer>
		<layer id="381" name="Constant_10177_compressed" type="Const" version="opset1">
			<data element_type="f16" shape="1, 1, 2048" offset="806382" size="4096" />
			<output>
				<port id="0" precision="FP16">
					<dim>1</dim>
					<dim>1</dim>
					<dim>2048</dim>
				</port>
			</output>
		</layer>
		<layer id="382" name="Constant_10177" type="Convert" version="opset1">
			<data destination_type="f32" />
			<rt_info>
				<attribute name="decompression" version="0" />
			</rt_info>
			<input>
				<port id="0" precision="FP16">
					<dim>1</dim>
					<dim>1</dim>
					<dim>2048</dim>
				</port>
			</input>
			<output>
				<port id="1" precision="FP32">
					<dim>1</dim>
					<dim>1</dim>
					<dim>2048</dim>
				</port>
			</output>
		</layer>
		<layer id="383" name="Transpose_9926_compressed" type="Const" version="opset1">
			<data element_type="f16" shape="2048, 84" offset="810478" size="344064" />
			<output>
				<port id="0" precision="FP16">
					<dim>2048</dim>
					<dim>84</dim>
				</port>
			</output>
		</layer>
		<layer id="384" name="Transpose_9926" type="Convert" version="opset1">
			<data destination_type="f32" />
			<rt_info>
				<attribute name="decompression" version="0" />
			</rt_info>
			<input>
				<port id="0" precision="FP16">
					<dim>2048</dim>
					<dim>84</dim>
				</port>
			</input>
			<output>
				<port id="1" precision="FP32">
					<dim>2048</dim>
					<dim>84</dim>
				</port>
			</output>
		</layer>
		<layer id="385" name="/model3/encoder/layers.0/linear1/MatMul" type="MatMul" version="opset1">
			<data transpose_a="false" transpose_b="true" />
			<input>
				<port id="0" precision="FP32">
					<dim>1</dim>
					<dim>61</dim>
					<dim>84</dim>
				</port>
				<port id="1" precision="FP32">
					<dim>2048</dim>
					<dim>84</dim>
				</port>
			</input>
			<output>
				<port id="2" precision="FP32" names="/model3/encoder/layers.0/linear1/MatMul_output_0">
					<dim>1</dim>
					<dim>61</dim>
					<dim>2048</dim>
				</port>
			</output>
		</layer>
		<layer id="386" name="/model3/encoder/layers.0/linear1/Add" type="Add" version="opset1">
			<data auto_broadcast="numpy" />
			<input>
				<port id="0" precision="FP32">
					<dim>1</dim>
					<dim>1</dim>
					<dim>2048</dim>
				</port>
				<port id="1" precision="FP32">
					<dim>1</dim>
					<dim>61</dim>
					<dim>2048</dim>
				</port>
			</input>
			<output>
				<port id="2" precision="FP32" names="/model3/encoder/layers.0/linear1/Add_output_0">
					<dim>1</dim>
					<dim>61</dim>
					<dim>2048</dim>
				</port>
			</output>
		</layer>
		<layer id="387" name="/model3/encoder/layers.0/Relu" type="ReLU" version="opset1">
			<input>
				<port id="0" precision="FP32">
					<dim>1</dim>
					<dim>61</dim>
					<dim>2048</dim>
				</port>
			</input>
			<output>
				<port id="1" precision="FP32" names="/model3/encoder/layers.0/Relu_output_0">
					<dim>1</dim>
					<dim>61</dim>
					<dim>2048</dim>
				</port>
			</output>
		</layer>
		<layer id="388" name="Transpose_9933_compressed" type="Const" version="opset1">
			<data element_type="f16" shape="84, 2048" offset="1154542" size="344064" />
			<output>
				<port id="0" precision="FP16">
					<dim>84</dim>
					<dim>2048</dim>
				</port>
			</output>
		</layer>
		<layer id="389" name="Transpose_9933" type="Convert" version="opset1">
			<data destination_type="f32" />
			<rt_info>
				<attribute name="decompression" version="0" />
			</rt_info>
			<input>
				<port id="0" precision="FP16">
					<dim>84</dim>
					<dim>2048</dim>
				</port>
			</input>
			<output>
				<port id="1" precision="FP32">
					<dim>84</dim>
					<dim>2048</dim>
				</port>
			</output>
		</layer>
		<layer id="390" name="/model3/encoder/layers.0/linear2/MatMul" type="MatMul" version="opset1">
			<data transpose_a="false" transpose_b="true" />
			<input>
				<port id="0" precision="FP32">
					<dim>1</dim>
					<dim>61</dim>
					<dim>2048</dim>
				</port>
				<port id="1" precision="FP32">
					<dim>84</dim>
					<dim>2048</dim>
				</port>
			</input>
			<output>
				<port id="2" precision="FP32" names="/model3/encoder/layers.0/linear2/MatMul_output_0">
					<dim>1</dim>
					<dim>61</dim>
					<dim>84</dim>
				</port>
			</output>
		</layer>
		<layer id="391" name="/model3/encoder/layers.0/linear2/Add" type="Add" version="opset1">
			<data auto_broadcast="numpy" />
			<input>
				<port id="0" precision="FP32">
					<dim>1</dim>
					<dim>1</dim>
					<dim>84</dim>
				</port>
				<port id="1" precision="FP32">
					<dim>1</dim>
					<dim>61</dim>
					<dim>84</dim>
				</port>
			</input>
			<output>
				<port id="2" precision="FP32" names="/model3/encoder/layers.0/linear2/Add_output_0">
					<dim>1</dim>
					<dim>61</dim>
					<dim>84</dim>
				</port>
			</output>
		</layer>
		<layer id="392" name="/model3/encoder/layers.0/Add_1" type="Add" version="opset1">
			<data auto_broadcast="numpy" />
			<input>
				<port id="0" precision="FP32">
					<dim>1</dim>
					<dim>61</dim>
					<dim>84</dim>
				</port>
				<port id="1" precision="FP32">
					<dim>1</dim>
					<dim>61</dim>
					<dim>84</dim>
				</port>
			</input>
			<output>
				<port id="2" precision="FP32" names="/model3/encoder/layers.0/Add_1_output_0">
					<dim>1</dim>
					<dim>61</dim>
					<dim>84</dim>
				</port>
			</output>
		</layer>
		<layer id="393" name="Constant_1839" type="Const" version="opset1">
			<data element_type="i64" shape="1" offset="5156" size="8" />
			<output>
				<port id="0" precision="I64">
					<dim>1</dim>
				</port>
			</output>
		</layer>
		<layer id="394" name="/model3/encoder/layers.0/norm2/Div" type="MVN" version="opset6">
			<data eps="9.9999997473787516e-06" normalize_variance="true" eps_mode="INSIDE_SQRT" />
			<input>
				<port id="0" precision="FP32">
					<dim>1</dim>
					<dim>61</dim>
					<dim>84</dim>
				</port>
				<port id="1" precision="I64">
					<dim>1</dim>
				</port>
			</input>
			<output>
				<port id="2" precision="FP32" names="/model3/encoder/layers.0/norm2/Div_output_0">
					<dim>1</dim>
					<dim>61</dim>
					<dim>84</dim>
				</port>
			</output>
		</layer>
		<layer id="395" name="Constant_10179_compressed" type="Const" version="opset1">
			<data element_type="f16" shape="1, 1, 84" offset="1498606" size="168" />
			<output>
				<port id="0" precision="FP16">
					<dim>1</dim>
					<dim>1</dim>
					<dim>84</dim>
				</port>
			</output>
		</layer>
		<layer id="396" name="Constant_10179" type="Convert" version="opset1">
			<data destination_type="f32" />
			<rt_info>
				<attribute name="decompression" version="0" />
			</rt_info>
			<input>
				<port id="0" precision="FP16">
					<dim>1</dim>
					<dim>1</dim>
					<dim>84</dim>
				</port>
			</input>
			<output>
				<port id="1" precision="FP32">
					<dim>1</dim>
					<dim>1</dim>
					<dim>84</dim>
				</port>
			</output>
		</layer>
		<layer id="397" name="/model3/encoder/layers.0/norm2/Mul" type="Multiply" version="opset1">
			<data auto_broadcast="numpy" />
			<input>
				<port id="0" precision="FP32">
					<dim>1</dim>
					<dim>61</dim>
					<dim>84</dim>
				</port>
				<port id="1" precision="FP32">
					<dim>1</dim>
					<dim>1</dim>
					<dim>84</dim>
				</port>
			</input>
			<output>
				<port id="2" precision="FP32" names="/model3/encoder/layers.0/norm2/Mul_output_0">
					<dim>1</dim>
					<dim>61</dim>
					<dim>84</dim>
				</port>
			</output>
		</layer>
		<layer id="398" name="Constant_10180_compressed" type="Const" version="opset1">
			<data element_type="f16" shape="1, 1, 84" offset="1498774" size="168" />
			<output>
				<port id="0" precision="FP16">
					<dim>1</dim>
					<dim>1</dim>
					<dim>84</dim>
				</port>
			</output>
		</layer>
		<layer id="399" name="Constant_10180" type="Convert" version="opset1">
			<data destination_type="f32" />
			<rt_info>
				<attribute name="decompression" version="0" />
			</rt_info>
			<input>
				<port id="0" precision="FP16">
					<dim>1</dim>
					<dim>1</dim>
					<dim>84</dim>
				</port>
			</input>
			<output>
				<port id="1" precision="FP32">
					<dim>1</dim>
					<dim>1</dim>
					<dim>84</dim>
				</port>
			</output>
		</layer>
		<layer id="400" name="/model3/encoder/layers.0/norm2/Add_1" type="Add" version="opset1">
			<data auto_broadcast="numpy" />
			<input>
				<port id="0" precision="FP32">
					<dim>1</dim>
					<dim>61</dim>
					<dim>84</dim>
				</port>
				<port id="1" precision="FP32">
					<dim>1</dim>
					<dim>1</dim>
					<dim>84</dim>
				</port>
			</input>
			<output>
				<port id="2" precision="FP32" names="/model3/encoder/layers.0/norm2/Add_1_output_0">
					<dim>1</dim>
					<dim>61</dim>
					<dim>84</dim>
				</port>
			</output>
		</layer>
		<layer id="401" name="Constant_1852" type="Const" version="opset1">
			<data element_type="i64" shape="1" offset="5140" size="8" />
			<output>
				<port id="0" precision="I64">
					<dim>1</dim>
				</port>
			</output>
		</layer>
		<layer id="402" name="/model3/ReduceMean" type="ReduceMean" version="opset1">
			<data keep_dims="false" />
			<input>
				<port id="0" precision="FP32">
					<dim>1</dim>
					<dim>61</dim>
					<dim>84</dim>
				</port>
				<port id="1" precision="I64">
					<dim>1</dim>
				</port>
			</input>
			<output>
				<port id="2" precision="FP32" names="/model3/ReduceMean_output_0">
					<dim>1</dim>
					<dim>84</dim>
				</port>
			</output>
		</layer>
		<layer id="403" name="model3.linear.weight_compressed" type="Const" version="opset1">
			<data element_type="f16" shape="7, 84" offset="1498942" size="1176" />
			<output>
				<port id="0" precision="FP16">
					<dim>7</dim>
					<dim>84</dim>
				</port>
			</output>
		</layer>
		<layer id="404" name="model3.linear.weight" type="Convert" version="opset1">
			<data destination_type="f32" />
			<rt_info>
				<attribute name="decompression" version="0" />
			</rt_info>
			<input>
				<port id="0" precision="FP16">
					<dim>7</dim>
					<dim>84</dim>
				</port>
			</input>
			<output>
				<port id="1" precision="FP32" names="model3.linear.weight">
					<dim>7</dim>
					<dim>84</dim>
				</port>
			</output>
		</layer>
		<layer id="405" name="/model3/linear/Gemm/WithoutBiases" type="MatMul" version="opset1">
			<data transpose_a="false" transpose_b="true" />
			<input>
				<port id="0" precision="FP32">
					<dim>1</dim>
					<dim>84</dim>
				</port>
				<port id="1" precision="FP32">
					<dim>7</dim>
					<dim>84</dim>
				</port>
			</input>
			<output>
				<port id="2" precision="FP32">
					<dim>1</dim>
					<dim>7</dim>
				</port>
			</output>
		</layer>
		<layer id="406" name="Constant_10181_compressed" type="Const" version="opset1">
			<data element_type="f16" shape="1, 7" offset="1500118" size="14" />
			<output>
				<port id="0" precision="FP16">
					<dim>1</dim>
					<dim>7</dim>
				</port>
			</output>
		</layer>
		<layer id="407" name="Constant_10181" type="Convert" version="opset1">
			<data destination_type="f32" />
			<rt_info>
				<attribute name="decompression" version="0" />
			</rt_info>
			<input>
				<port id="0" precision="FP16">
					<dim>1</dim>
					<dim>7</dim>
				</port>
			</input>
			<output>
				<port id="1" precision="FP32">
					<dim>1</dim>
					<dim>7</dim>
				</port>
			</output>
		</layer>
		<layer id="408" name="/model3/linear/Gemm" type="Add" version="opset1">
			<data auto_broadcast="numpy" />
			<input>
				<port id="0" precision="FP32">
					<dim>1</dim>
					<dim>7</dim>
				</port>
				<port id="1" precision="FP32">
					<dim>1</dim>
					<dim>7</dim>
				</port>
			</input>
			<output>
				<port id="2" precision="FP32" names="/model3/linear/Gemm_output_0">
					<dim>1</dim>
					<dim>7</dim>
				</port>
			</output>
		</layer>
		<layer id="409" name="/Add_1" type="Add" version="opset1">
			<data auto_broadcast="numpy" />
			<input>
				<port id="0" precision="FP32">
					<dim>1</dim>
					<dim>7</dim>
				</port>
				<port id="1" precision="FP32">
					<dim>1</dim>
					<dim>7</dim>
				</port>
			</input>
			<output>
				<port id="2" precision="FP32" names="/Add_1_output_0">
					<dim>1</dim>
					<dim>7</dim>
				</port>
			</output>
		</layer>
		<layer id="410" name="Constant_10182_compressed" type="Const" version="opset1">
			<data element_type="f16" shape="1, 1" offset="1500132" size="2" />
			<output>
				<port id="0" precision="FP16">
					<dim>1</dim>
					<dim>1</dim>
				</port>
			</output>
		</layer>
		<layer id="411" name="Constant_10182" type="Convert" version="opset1">
			<data destination_type="f32" />
			<rt_info>
				<attribute name="decompression" version="0" />
			</rt_info>
			<input>
				<port id="0" precision="FP16">
					<dim>1</dim>
					<dim>1</dim>
				</port>
			</input>
			<output>
				<port id="1" precision="FP32">
					<dim>1</dim>
					<dim>1</dim>
				</port>
			</output>
		</layer>
		<layer id="412" name="output" type="Multiply" version="opset1">
			<data auto_broadcast="numpy" />
			<input>
				<port id="0" precision="FP32">
					<dim>1</dim>
					<dim>7</dim>
				</port>
				<port id="1" precision="FP32">
					<dim>1</dim>
					<dim>1</dim>
				</port>
			</input>
			<output>
				<port id="2" precision="FP32" names="output">
					<dim>1</dim>
					<dim>7</dim>
				</port>
			</output>
		</layer>
		<layer id="413" name="output/sink_port_0" type="Result" version="opset1">
			<input>
				<port id="0" precision="FP32">
					<dim>1</dim>
					<dim>7</dim>
				</port>
			</input>
		</layer>
	</layers>
	<edges>
		<edge from-layer="0" from-port="0" to-layer="7" to-port="0" />
		<edge from-layer="0" from-port="0" to-layer="171" to-port="0" />
		<edge from-layer="0" from-port="0" to-layer="298" to-port="0" />
		<edge from-layer="1" from-port="0" to-layer="2" to-port="0" />
		<edge from-layer="2" from-port="1" to-layer="19" to-port="0" />
		<edge from-layer="3" from-port="0" to-layer="7" to-port="1" />
		<edge from-layer="4" from-port="0" to-layer="7" to-port="2" />
		<edge from-layer="5" from-port="0" to-layer="7" to-port="3" />
		<edge from-layer="6" from-port="0" to-layer="7" to-port="4" />
		<edge from-layer="7" from-port="5" to-layer="8" to-port="0" />
		<edge from-layer="7" from-port="5" to-layer="41" to-port="0" />
		<edge from-layer="8" from-port="1" to-layer="11" to-port="0" />
		<edge from-layer="8" from-port="1" to-layer="23" to-port="0" />
		<edge from-layer="9" from-port="0" to-layer="11" to-port="1" />
		<edge from-layer="10" from-port="0" to-layer="11" to-port="2" />
		<edge from-layer="11" from-port="3" to-layer="14" to-port="0" />
		<edge from-layer="11" from-port="3" to-layer="32" to-port="0" />
		<edge from-layer="12" from-port="0" to-layer="14" to-port="1" />
		<edge from-layer="13" from-port="0" to-layer="14" to-port="2" />
		<edge from-layer="14" from-port="3" to-layer="16" to-port="0" />
		<edge from-layer="14" from-port="3" to-layer="18" to-port="2" />
		<edge from-layer="15" from-port="0" to-layer="16" to-port="1" />
		<edge from-layer="16" from-port="2" to-layer="18" to-port="0" />
		<edge from-layer="17" from-port="0" to-layer="18" to-port="1" />
		<edge from-layer="18" from-port="3" to-layer="157" to-port="1" />
		<edge from-layer="18" from-port="3" to-layer="19" to-port="1" />
		<edge from-layer="18" from-port="3" to-layer="287" to-port="1" />
		<edge from-layer="19" from-port="2" to-layer="28" to-port="0" />
		<edge from-layer="20" from-port="0" to-layer="28" to-port="1" />
		<edge from-layer="21" from-port="0" to-layer="23" to-port="1" />
		<edge from-layer="22" from-port="0" to-layer="23" to-port="2" />
		<edge from-layer="23" from-port="3" to-layer="25" to-port="0" />
		<edge from-layer="24" from-port="0" to-layer="25" to-port="1" />
		<edge from-layer="25" from-port="2" to-layer="291" to-port="2" />
		<edge from-layer="25" from-port="2" to-layer="28" to-port="2" />
		<edge from-layer="25" from-port="2" to-layer="161" to-port="2" />
		<edge from-layer="26" from-port="0" to-layer="28" to-port="3" />
		<edge from-layer="27" from-port="0" to-layer="28" to-port="4" />
		<edge from-layer="28" from-port="5" to-layer="43" to-port="0" />
		<edge from-layer="29" from-port="0" to-layer="30" to-port="0" />
		<edge from-layer="30" from-port="1" to-layer="37" to-port="0" />
		<edge from-layer="31" from-port="0" to-layer="32" to-port="1" />
		<edge from-layer="32" from-port="2" to-layer="34" to-port="0" />
		<edge from-layer="32" from-port="2" to-layer="36" to-port="2" />
		<edge from-layer="33" from-port="0" to-layer="34" to-port="1" />
		<edge from-layer="34" from-port="2" to-layer="36" to-port="0" />
		<edge from-layer="35" from-port="0" to-layer="36" to-port="1" />
		<edge from-layer="36" from-port="3" to-layer="37" to-port="1" />
		<edge from-layer="36" from-port="3" to-layer="294" to-port="1" />
		<edge from-layer="36" from-port="3" to-layer="164" to-port="1" />
		<edge from-layer="37" from-port="2" to-layer="39" to-port="0" />
		<edge from-layer="38" from-port="0" to-layer="39" to-port="1" />
		<edge from-layer="39" from-port="2" to-layer="42" to-port="0" />
		<edge from-layer="40" from-port="0" to-layer="41" to-port="1" />
		<edge from-layer="41" from-port="2" to-layer="42" to-port="1" />
		<edge from-layer="42" from-port="2" to-layer="43" to-port="1" />
		<edge from-layer="43" from-port="2" to-layer="48" to-port="0" />
		<edge from-layer="43" from-port="2" to-layer="114" to-port="0" />
		<edge from-layer="43" from-port="2" to-layer="116" to-port="0" />
		<edge from-layer="44" from-port="0" to-layer="45" to-port="0" />
		<edge from-layer="45" from-port="1" to-layer="49" to-port="0" />
		<edge from-layer="46" from-port="0" to-layer="47" to-port="0" />
		<edge from-layer="47" from-port="1" to-layer="48" to-port="1" />
		<edge from-layer="48" from-port="2" to-layer="49" to-port="1" />
		<edge from-layer="49" from-port="2" to-layer="51" to-port="0" />
		<edge from-layer="50" from-port="0" to-layer="51" to-port="1" />
		<edge from-layer="51" from-port="2" to-layer="53" to-port="0" />
		<edge from-layer="52" from-port="0" to-layer="53" to-port="1" />
		<edge from-layer="53" from-port="2" to-layer="55" to-port="0" />
		<edge from-layer="54" from-port="0" to-layer="55" to-port="1" />
		<edge from-layer="55" from-port="2" to-layer="57" to-port="0" />
		<edge from-layer="56" from-port="0" to-layer="57" to-port="1" />
		<edge from-layer="57" from-port="2" to-layer="60" to-port="0" />
		<edge from-layer="57" from-port="2" to-layer="96" to-port="0" />
		<edge from-layer="57" from-port="2" to-layer="82" to-port="0" />
		<edge from-layer="58" from-port="0" to-layer="191" to-port="1" />
		<edge from-layer="58" from-port="0" to-layer="316" to-port="1" />
		<edge from-layer="58" from-port="0" to-layer="60" to-port="1" />
		<edge from-layer="59" from-port="0" to-layer="60" to-port="2" />
		<edge from-layer="60" from-port="3" to-layer="62" to-port="0" />
		<edge from-layer="61" from-port="0" to-layer="62" to-port="1" />
		<edge from-layer="62" from-port="2" to-layer="64" to-port="0" />
		<edge from-layer="63" from-port="0" to-layer="64" to-port="1" />
		<edge from-layer="64" from-port="2" to-layer="66" to-port="0" />
		<edge from-layer="65" from-port="0" to-layer="66" to-port="1" />
		<edge from-layer="66" from-port="2" to-layer="79" to-port="0" />
		<edge from-layer="66" from-port="2" to-layer="69" to-port="0" />
		<edge from-layer="67" from-port="0" to-layer="68" to-port="0" />
		<edge from-layer="68" from-port="1" to-layer="77" to-port="0" />
		<edge from-layer="69" from-port="1" to-layer="74" to-port="0" />
		<edge from-layer="70" from-port="0" to-layer="74" to-port="1" />
		<edge from-layer="71" from-port="0" to-layer="74" to-port="2" />
		<edge from-layer="72" from-port="0" to-layer="74" to-port="3" />
		<edge from-layer="73" from-port="0" to-layer="74" to-port="4" />
		<edge from-layer="74" from-port="5" to-layer="75" to-port="0" />
		<edge from-layer="75" from-port="1" to-layer="76" to-port="0" />
		<edge from-layer="76" from-port="1" to-layer="77" to-port="1" />
		<edge from-layer="77" from-port="2" to-layer="78" to-port="0" />
		<edge from-layer="78" from-port="1" to-layer="91" to-port="1" />
		<edge from-layer="78" from-port="1" to-layer="79" to-port="1" />
		<edge from-layer="79" from-port="2" to-layer="92" to-port="0" />
		<edge from-layer="80" from-port="0" to-layer="82" to-port="1" />
		<edge from-layer="80" from-port="0" to-layer="212" to-port="1" />
		<edge from-layer="80" from-port="0" to-layer="337" to-port="1" />
		<edge from-layer="81" from-port="0" to-layer="82" to-port="2" />
		<edge from-layer="82" from-port="3" to-layer="84" to-port="0" />
		<edge from-layer="83" from-port="0" to-layer="84" to-port="1" />
		<edge from-layer="84" from-port="2" to-layer="86" to-port="0" />
		<edge from-layer="85" from-port="0" to-layer="86" to-port="1" />
		<edge from-layer="86" from-port="2" to-layer="88" to-port="0" />
		<edge from-layer="87" from-port="0" to-layer="88" to-port="1" />
		<edge from-layer="88" from-port="2" to-layer="90" to-port="0" />
		<edge from-layer="89" from-port="0" to-layer="90" to-port="1" />
		<edge from-layer="90" from-port="2" to-layer="91" to-port="0" />
		<edge from-layer="91" from-port="2" to-layer="92" to-port="1" />
		<edge from-layer="92" from-port="2" to-layer="93" to-port="0" />
		<edge from-layer="93" from-port="1" to-layer="103" to-port="0" />
		<edge from-layer="94" from-port="0" to-layer="96" to-port="1" />
		<edge from-layer="94" from-port="0" to-layer="350" to-port="1" />
		<edge from-layer="94" from-port="0" to-layer="225" to-port="1" />
		<edge from-layer="95" from-port="0" to-layer="96" to-port="2" />
		<edge from-layer="96" from-port="3" to-layer="98" to-port="0" />
		<edge from-layer="97" from-port="0" to-layer="98" to-port="1" />
		<edge from-layer="98" from-port="2" to-layer="100" to-port="0" />
		<edge from-layer="99" from-port="0" to-layer="100" to-port="1" />
		<edge from-layer="100" from-port="2" to-layer="102" to-port="0" />
		<edge from-layer="101" from-port="0" to-layer="102" to-port="1" />
		<edge from-layer="102" from-port="2" to-layer="103" to-port="1" />
		<edge from-layer="103" from-port="2" to-layer="105" to-port="0" />
		<edge from-layer="104" from-port="0" to-layer="105" to-port="1" />
		<edge from-layer="105" from-port="2" to-layer="107" to-port="0" />
		<edge from-layer="106" from-port="0" to-layer="107" to-port="1" />
		<edge from-layer="107" from-port="2" to-layer="110" to-port="0" />
		<edge from-layer="108" from-port="0" to-layer="109" to-port="0" />
		<edge from-layer="109" from-port="1" to-layer="110" to-port="1" />
		<edge from-layer="110" from-port="2" to-layer="113" to-port="0" />
		<edge from-layer="111" from-port="0" to-layer="112" to-port="0" />
		<edge from-layer="112" from-port="1" to-layer="113" to-port="1" />
		<edge from-layer="113" from-port="2" to-layer="115" to-port="0" />
		<edge from-layer="114" from-port="1" to-layer="115" to-port="1" />
		<edge from-layer="115" from-port="2" to-layer="116" to-port="1" />
		<edge from-layer="116" from-port="2" to-layer="118" to-port="0" />
		<edge from-layer="117" from-port="0" to-layer="118" to-port="1" />
		<edge from-layer="118" from-port="2" to-layer="121" to-port="0" />
		<edge from-layer="119" from-port="0" to-layer="120" to-port="0" />
		<edge from-layer="120" from-port="1" to-layer="121" to-port="1" />
		<edge from-layer="121" from-port="2" to-layer="124" to-port="0" />
		<edge from-layer="122" from-port="0" to-layer="123" to-port="0" />
		<edge from-layer="123" from-port="1" to-layer="124" to-port="1" />
		<edge from-layer="124" from-port="2" to-layer="131" to-port="0" />
		<edge from-layer="124" from-port="2" to-layer="138" to-port="0" />
		<edge from-layer="125" from-port="0" to-layer="126" to-port="0" />
		<edge from-layer="126" from-port="1" to-layer="137" to-port="0" />
		<edge from-layer="127" from-port="0" to-layer="128" to-port="0" />
		<edge from-layer="128" from-port="1" to-layer="132" to-port="0" />
		<edge from-layer="129" from-port="0" to-layer="130" to-port="0" />
		<edge from-layer="130" from-port="1" to-layer="131" to-port="1" />
		<edge from-layer="131" from-port="2" to-layer="132" to-port="1" />
		<edge from-layer="132" from-port="2" to-layer="133" to-port="0" />
		<edge from-layer="133" from-port="1" to-layer="136" to-port="0" />
		<edge from-layer="134" from-port="0" to-layer="135" to-port="0" />
		<edge from-layer="135" from-port="1" to-layer="136" to-port="1" />
		<edge from-layer="136" from-port="2" to-layer="137" to-port="1" />
		<edge from-layer="137" from-port="2" to-layer="138" to-port="1" />
		<edge from-layer="138" from-port="2" to-layer="140" to-port="0" />
		<edge from-layer="139" from-port="0" to-layer="140" to-port="1" />
		<edge from-layer="140" from-port="2" to-layer="143" to-port="0" />
		<edge from-layer="141" from-port="0" to-layer="142" to-port="0" />
		<edge from-layer="142" from-port="1" to-layer="143" to-port="1" />
		<edge from-layer="143" from-port="2" to-layer="146" to-port="0" />
		<edge from-layer="144" from-port="0" to-layer="145" to-port="0" />
		<edge from-layer="145" from-port="1" to-layer="146" to-port="1" />
		<edge from-layer="146" from-port="2" to-layer="148" to-port="0" />
		<edge from-layer="147" from-port="0" to-layer="148" to-port="1" />
		<edge from-layer="148" from-port="2" to-layer="151" to-port="0" />
		<edge from-layer="149" from-port="0" to-layer="150" to-port="0" />
		<edge from-layer="150" from-port="1" to-layer="151" to-port="1" />
		<edge from-layer="151" from-port="2" to-layer="154" to-port="0" />
		<edge from-layer="152" from-port="0" to-layer="153" to-port="0" />
		<edge from-layer="153" from-port="1" to-layer="154" to-port="1" />
		<edge from-layer="154" from-port="2" to-layer="284" to-port="0" />
		<edge from-layer="155" from-port="0" to-layer="156" to-port="0" />
		<edge from-layer="156" from-port="1" to-layer="157" to-port="0" />
		<edge from-layer="157" from-port="2" to-layer="161" to-port="0" />
		<edge from-layer="158" from-port="0" to-layer="161" to-port="1" />
		<edge from-layer="159" from-port="0" to-layer="161" to-port="3" />
		<edge from-layer="160" from-port="0" to-layer="161" to-port="4" />
		<edge from-layer="161" from-port="5" to-layer="175" to-port="0" />
		<edge from-layer="162" from-port="0" to-layer="163" to-port="0" />
		<edge from-layer="163" from-port="1" to-layer="164" to-port="0" />
		<edge from-layer="164" from-port="2" to-layer="166" to-port="0" />
		<edge from-layer="165" from-port="0" to-layer="166" to-port="1" />
		<edge from-layer="166" from-port="2" to-layer="174" to-port="0" />
		<edge from-layer="167" from-port="0" to-layer="171" to-port="1" />
		<edge from-layer="168" from-port="0" to-layer="171" to-port="2" />
		<edge from-layer="169" from-port="0" to-layer="171" to-port="3" />
		<edge from-layer="170" from-port="0" to-layer="171" to-port="4" />
		<edge from-layer="171" from-port="5" to-layer="173" to-port="0" />
		<edge from-layer="172" from-port="0" to-layer="173" to-port="1" />
		<edge from-layer="173" from-port="2" to-layer="174" to-port="1" />
		<edge from-layer="174" from-port="2" to-layer="175" to-port="1" />
		<edge from-layer="175" from-port="2" to-layer="180" to-port="0" />
		<edge from-layer="175" from-port="2" to-layer="243" to-port="0" />
		<edge from-layer="175" from-port="2" to-layer="245" to-port="0" />
		<edge from-layer="176" from-port="0" to-layer="177" to-port="0" />
		<edge from-layer="177" from-port="1" to-layer="181" to-port="0" />
		<edge from-layer="178" from-port="0" to-layer="179" to-port="0" />
		<edge from-layer="179" from-port="1" to-layer="180" to-port="1" />
		<edge from-layer="180" from-port="2" to-layer="181" to-port="1" />
		<edge from-layer="181" from-port="2" to-layer="183" to-port="0" />
		<edge from-layer="182" from-port="0" to-layer="183" to-port="1" />
		<edge from-layer="183" from-port="2" to-layer="185" to-port="0" />
		<edge from-layer="184" from-port="0" to-layer="185" to-port="1" />
		<edge from-layer="185" from-port="2" to-layer="187" to-port="0" />
		<edge from-layer="186" from-port="0" to-layer="187" to-port="1" />
		<edge from-layer="187" from-port="2" to-layer="189" to-port="0" />
		<edge from-layer="188" from-port="0" to-layer="189" to-port="1" />
		<edge from-layer="189" from-port="2" to-layer="225" to-port="0" />
		<edge from-layer="189" from-port="2" to-layer="212" to-port="0" />
		<edge from-layer="189" from-port="2" to-layer="191" to-port="0" />
		<edge from-layer="190" from-port="0" to-layer="191" to-port="2" />
		<edge from-layer="191" from-port="3" to-layer="193" to-port="0" />
		<edge from-layer="192" from-port="0" to-layer="193" to-port="1" />
		<edge from-layer="193" from-port="2" to-layer="195" to-port="0" />
		<edge from-layer="194" from-port="0" to-layer="195" to-port="1" />
		<edge from-layer="195" from-port="2" to-layer="197" to-port="0" />
		<edge from-layer="196" from-port="0" to-layer="197" to-port="1" />
		<edge from-layer="197" from-port="2" to-layer="210" to-port="0" />
		<edge from-layer="197" from-port="2" to-layer="200" to-port="0" />
		<edge from-layer="198" from-port="0" to-layer="199" to-port="0" />
		<edge from-layer="199" from-port="1" to-layer="208" to-port="0" />
		<edge from-layer="200" from-port="1" to-layer="205" to-port="0" />
		<edge from-layer="201" from-port="0" to-layer="205" to-port="1" />
		<edge from-layer="202" from-port="0" to-layer="205" to-port="2" />
		<edge from-layer="203" from-port="0" to-layer="205" to-port="3" />
		<edge from-layer="204" from-port="0" to-layer="205" to-port="4" />
		<edge from-layer="205" from-port="5" to-layer="206" to-port="0" />
		<edge from-layer="206" from-port="1" to-layer="207" to-port="0" />
		<edge from-layer="207" from-port="1" to-layer="208" to-port="1" />
		<edge from-layer="208" from-port="2" to-layer="209" to-port="0" />
		<edge from-layer="209" from-port="1" to-layer="210" to-port="1" />
		<edge from-layer="209" from-port="1" to-layer="221" to-port="1" />
		<edge from-layer="210" from-port="2" to-layer="222" to-port="0" />
		<edge from-layer="211" from-port="0" to-layer="212" to-port="2" />
		<edge from-layer="212" from-port="3" to-layer="214" to-port="0" />
		<edge from-layer="213" from-port="0" to-layer="214" to-port="1" />
		<edge from-layer="214" from-port="2" to-layer="216" to-port="0" />
		<edge from-layer="215" from-port="0" to-layer="216" to-port="1" />
		<edge from-layer="216" from-port="2" to-layer="218" to-port="0" />
		<edge from-layer="217" from-port="0" to-layer="218" to-port="1" />
		<edge from-layer="218" from-port="2" to-layer="220" to-port="0" />
		<edge from-layer="219" from-port="0" to-layer="220" to-port="1" />
		<edge from-layer="220" from-port="2" to-layer="221" to-port="0" />
		<edge from-layer="221" from-port="2" to-layer="222" to-port="1" />
		<edge from-layer="222" from-port="2" to-layer="223" to-port="0" />
		<edge from-layer="223" from-port="1" to-layer="232" to-port="0" />
		<edge from-layer="224" from-port="0" to-layer="225" to-port="2" />
		<edge from-layer="225" from-port="3" to-layer="227" to-port="0" />
		<edge from-layer="226" from-port="0" to-layer="227" to-port="1" />
		<edge from-layer="227" from-port="2" to-layer="229" to-port="0" />
		<edge from-layer="228" from-port="0" to-layer="229" to-port="1" />
		<edge from-layer="229" from-port="2" to-layer="231" to-port="0" />
		<edge from-layer="230" from-port="0" to-layer="231" to-port="1" />
		<edge from-layer="231" from-port="2" to-layer="232" to-port="1" />
		<edge from-layer="232" from-port="2" to-layer="234" to-port="0" />
		<edge from-layer="233" from-port="0" to-layer="234" to-port="1" />
		<edge from-layer="234" from-port="2" to-layer="236" to-port="0" />
		<edge from-layer="235" from-port="0" to-layer="236" to-port="1" />
		<edge from-layer="236" from-port="2" to-layer="239" to-port="0" />
		<edge from-layer="237" from-port="0" to-layer="238" to-port="0" />
		<edge from-layer="238" from-port="1" to-layer="239" to-port="1" />
		<edge from-layer="239" from-port="2" to-layer="242" to-port="0" />
		<edge from-layer="240" from-port="0" to-layer="241" to-port="0" />
		<edge from-layer="241" from-port="1" to-layer="242" to-port="1" />
		<edge from-layer="242" from-port="2" to-layer="244" to-port="0" />
		<edge from-layer="243" from-port="1" to-layer="244" to-port="1" />
		<edge from-layer="244" from-port="2" to-layer="245" to-port="1" />
		<edge from-layer="245" from-port="2" to-layer="247" to-port="0" />
		<edge from-layer="246" from-port="0" to-layer="247" to-port="1" />
		<edge from-layer="247" from-port="2" to-layer="250" to-port="0" />
		<edge from-layer="248" from-port="0" to-layer="249" to-port="0" />
		<edge from-layer="249" from-port="1" to-layer="250" to-port="1" />
		<edge from-layer="250" from-port="2" to-layer="253" to-port="0" />
		<edge from-layer="251" from-port="0" to-layer="252" to-port="0" />
		<edge from-layer="252" from-port="1" to-layer="253" to-port="1" />
		<edge from-layer="253" from-port="2" to-layer="267" to-port="0" />
		<edge from-layer="253" from-port="2" to-layer="260" to-port="0" />
		<edge from-layer="254" from-port="0" to-layer="255" to-port="0" />
		<edge from-layer="255" from-port="1" to-layer="266" to-port="0" />
		<edge from-layer="256" from-port="0" to-layer="257" to-port="0" />
		<edge from-layer="257" from-port="1" to-layer="261" to-port="0" />
		<edge from-layer="258" from-port="0" to-layer="259" to-port="0" />
		<edge from-layer="259" from-port="1" to-layer="260" to-port="1" />
		<edge from-layer="260" from-port="2" to-layer="261" to-port="1" />
		<edge from-layer="261" from-port="2" to-layer="262" to-port="0" />
		<edge from-layer="262" from-port="1" to-layer="265" to-port="0" />
		<edge from-layer="263" from-port="0" to-layer="264" to-port="0" />
		<edge from-layer="264" from-port="1" to-layer="265" to-port="1" />
		<edge from-layer="265" from-port="2" to-layer="266" to-port="1" />
		<edge from-layer="266" from-port="2" to-layer="267" to-port="1" />
		<edge from-layer="267" from-port="2" to-layer="269" to-port="0" />
		<edge from-layer="268" from-port="0" to-layer="269" to-port="1" />
		<edge from-layer="269" from-port="2" to-layer="272" to-port="0" />
		<edge from-layer="270" from-port="0" to-layer="271" to-port="0" />
		<edge from-layer="271" from-port="1" to-layer="272" to-port="1" />
		<edge from-layer="272" from-port="2" to-layer="275" to-port="0" />
		<edge from-layer="273" from-port="0" to-layer="274" to-port="0" />
		<edge from-layer="274" from-port="1" to-layer="275" to-port="1" />
		<edge from-layer="275" from-port="2" to-layer="277" to-port="0" />
		<edge from-layer="276" from-port="0" to-layer="277" to-port="1" />
		<edge from-layer="277" from-port="2" to-layer="280" to-port="0" />
		<edge from-layer="278" from-port="0" to-layer="279" to-port="0" />
		<edge from-layer="279" from-port="1" to-layer="280" to-port="1" />
		<edge from-layer="280" from-port="2" to-layer="283" to-port="0" />
		<edge from-layer="281" from-port="0" to-layer="282" to-port="0" />
		<edge from-layer="282" from-port="1" to-layer="283" to-port="1" />
		<edge from-layer="283" from-port="2" to-layer="284" to-port="1" />
		<edge from-layer="284" from-port="2" to-layer="409" to-port="0" />
		<edge from-layer="285" from-port="0" to-layer="286" to-port="0" />
		<edge from-layer="286" from-port="1" to-layer="287" to-port="0" />
		<edge from-layer="287" from-port="2" to-layer="291" to-port="0" />
		<edge from-layer="288" from-port="0" to-layer="291" to-port="1" />
		<edge from-layer="289" from-port="0" to-layer="291" to-port="3" />
		<edge from-layer="290" from-port="0" to-layer="291" to-port="4" />
		<edge from-layer="291" from-port="5" to-layer="300" to-port="0" />
		<edge from-layer="292" from-port="0" to-layer="293" to-port="0" />
		<edge from-layer="293" from-port="1" to-layer="294" to-port="0" />
		<edge from-layer="294" from-port="2" to-layer="296" to-port="0" />
		<edge from-layer="295" from-port="0" to-layer="296" to-port="1" />
		<edge from-layer="296" from-port="2" to-layer="299" to-port="0" />
		<edge from-layer="297" from-port="0" to-layer="298" to-port="1" />
		<edge from-layer="298" from-port="2" to-layer="299" to-port="1" />
		<edge from-layer="299" from-port="2" to-layer="300" to-port="1" />
		<edge from-layer="300" from-port="2" to-layer="305" to-port="0" />
		<edge from-layer="300" from-port="2" to-layer="368" to-port="0" />
		<edge from-layer="300" from-port="2" to-layer="370" to-port="0" />
		<edge from-layer="301" from-port="0" to-layer="302" to-port="0" />
		<edge from-layer="302" from-port="1" to-layer="306" to-port="0" />
		<edge from-layer="303" from-port="0" to-layer="304" to-port="0" />
		<edge from-layer="304" from-port="1" to-layer="305" to-port="1" />
		<edge from-layer="305" from-port="2" to-layer="306" to-port="1" />
		<edge from-layer="306" from-port="2" to-layer="308" to-port="0" />
		<edge from-layer="307" from-port="0" to-layer="308" to-port="1" />
		<edge from-layer="308" from-port="2" to-layer="310" to-port="0" />
		<edge from-layer="309" from-port="0" to-layer="310" to-port="1" />
		<edge from-layer="310" from-port="2" to-layer="312" to-port="0" />
		<edge from-layer="311" from-port="0" to-layer="312" to-port="1" />
		<edge from-layer="312" from-port="2" to-layer="314" to-port="0" />
		<edge from-layer="313" from-port="0" to-layer="314" to-port="1" />
		<edge from-layer="314" from-port="2" to-layer="316" to-port="0" />
		<edge from-layer="314" from-port="2" to-layer="350" to-port="0" />
		<edge from-layer="314" from-port="2" to-layer="337" to-port="0" />
		<edge from-layer="315" from-port="0" to-layer="316" to-port="2" />
		<edge from-layer="316" from-port="3" to-layer="318" to-port="0" />
		<edge from-layer="317" from-port="0" to-layer="318" to-port="1" />
		<edge from-layer="318" from-port="2" to-layer="320" to-port="0" />
		<edge from-layer="319" from-port="0" to-layer="320" to-port="1" />
		<edge from-layer="320" from-port="2" to-layer="322" to-port="0" />
		<edge from-layer="321" from-port="0" to-layer="322" to-port="1" />
		<edge from-layer="322" from-port="2" to-layer="325" to-port="0" />
		<edge from-layer="322" from-port="2" to-layer="335" to-port="0" />
		<edge from-layer="323" from-port="0" to-layer="324" to-port="0" />
		<edge from-layer="324" from-port="1" to-layer="333" to-port="0" />
		<edge from-layer="325" from-port="1" to-layer="330" to-port="0" />
		<edge from-layer="326" from-port="0" to-layer="330" to-port="1" />
		<edge from-layer="327" from-port="0" to-layer="330" to-port="2" />
		<edge from-layer="328" from-port="0" to-layer="330" to-port="3" />
		<edge from-layer="329" from-port="0" to-layer="330" to-port="4" />
		<edge from-layer="330" from-port="5" to-layer="331" to-port="0" />
		<edge from-layer="331" from-port="1" to-layer="332" to-port="0" />
		<edge from-layer="332" from-port="1" to-layer="333" to-port="1" />
		<edge from-layer="333" from-port="2" to-layer="334" to-port="0" />
		<edge from-layer="334" from-port="1" to-layer="335" to-port="1" />
		<edge from-layer="334" from-port="1" to-layer="346" to-port="1" />
		<edge from-layer="335" from-port="2" to-layer="347" to-port="0" />
		<edge from-layer="336" from-port="0" to-layer="337" to-port="2" />
		<edge from-layer="337" from-port="3" to-layer="339" to-port="0" />
		<edge from-layer="338" from-port="0" to-layer="339" to-port="1" />
		<edge from-layer="339" from-port="2" to-layer="341" to-port="0" />
		<edge from-layer="340" from-port="0" to-layer="341" to-port="1" />
		<edge from-layer="341" from-port="2" to-layer="343" to-port="0" />
		<edge from-layer="342" from-port="0" to-layer="343" to-port="1" />
		<edge from-layer="343" from-port="2" to-layer="345" to-port="0" />
		<edge from-layer="344" from-port="0" to-layer="345" to-port="1" />
		<edge from-layer="345" from-port="2" to-layer="346" to-port="0" />
		<edge from-layer="346" from-port="2" to-layer="347" to-port="1" />
		<edge from-layer="347" from-port="2" to-layer="348" to-port="0" />
		<edge from-layer="348" from-port="1" to-layer="357" to-port="0" />
		<edge from-layer="349" from-port="0" to-layer="350" to-port="2" />
		<edge from-layer="350" from-port="3" to-layer="352" to-port="0" />
		<edge from-layer="351" from-port="0" to-layer="352" to-port="1" />
		<edge from-layer="352" from-port="2" to-layer="354" to-port="0" />
		<edge from-layer="353" from-port="0" to-layer="354" to-port="1" />
		<edge from-layer="354" from-port="2" to-layer="356" to-port="0" />
		<edge from-layer="355" from-port="0" to-layer="356" to-port="1" />
		<edge from-layer="356" from-port="2" to-layer="357" to-port="1" />
		<edge from-layer="357" from-port="2" to-layer="359" to-port="0" />
		<edge from-layer="358" from-port="0" to-layer="359" to-port="1" />
		<edge from-layer="359" from-port="2" to-layer="361" to-port="0" />
		<edge from-layer="360" from-port="0" to-layer="361" to-port="1" />
		<edge from-layer="361" from-port="2" to-layer="364" to-port="0" />
		<edge from-layer="362" from-port="0" to-layer="363" to-port="0" />
		<edge from-layer="363" from-port="1" to-layer="364" to-port="1" />
		<edge from-layer="364" from-port="2" to-layer="367" to-port="0" />
		<edge from-layer="365" from-port="0" to-layer="366" to-port="0" />
		<edge from-layer="366" from-port="1" to-layer="367" to-port="1" />
		<edge from-layer="367" from-port="2" to-layer="369" to-port="0" />
		<edge from-layer="368" from-port="1" to-layer="369" to-port="1" />
		<edge from-layer="369" from-port="2" to-layer="370" to-port="1" />
		<edge from-layer="370" from-port="2" to-layer="372" to-port="0" />
		<edge from-layer="371" from-port="0" to-layer="372" to-port="1" />
		<edge from-layer="372" from-port="2" to-layer="375" to-port="0" />
		<edge from-layer="373" from-port="0" to-layer="374" to-port="0" />
		<edge from-layer="374" from-port="1" to-layer="375" to-port="1" />
		<edge from-layer="375" from-port="2" to-layer="378" to-port="0" />
		<edge from-layer="376" from-port="0" to-layer="377" to-port="0" />
		<edge from-layer="377" from-port="1" to-layer="378" to-port="1" />
		<edge from-layer="378" from-port="2" to-layer="385" to-port="0" />
		<edge from-layer="378" from-port="2" to-layer="392" to-port="0" />
		<edge from-layer="379" from-port="0" to-layer="380" to-port="0" />
		<edge from-layer="380" from-port="1" to-layer="391" to-port="0" />
		<edge from-layer="381" from-port="0" to-layer="382" to-port="0" />
		<edge from-layer="382" from-port="1" to-layer="386" to-port="0" />
		<edge from-layer="383" from-port="0" to-layer="384" to-port="0" />
		<edge from-layer="384" from-port="1" to-layer="385" to-port="1" />
		<edge from-layer="385" from-port="2" to-layer="386" to-port="1" />
		<edge from-layer="386" from-port="2" to-layer="387" to-port="0" />
		<edge from-layer="387" from-port="1" to-layer="390" to-port="0" />
		<edge from-layer="388" from-port="0" to-layer="389" to-port="0" />
		<edge from-layer="389" from-port="1" to-layer="390" to-port="1" />
		<edge from-layer="390" from-port="2" to-layer="391" to-port="1" />
		<edge from-layer="391" from-port="2" to-layer="392" to-port="1" />
		<edge from-layer="392" from-port="2" to-layer="394" to-port="0" />
		<edge from-layer="393" from-port="0" to-layer="394" to-port="1" />
		<edge from-layer="394" from-port="2" to-layer="397" to-port="0" />
		<edge from-layer="395" from-port="0" to-layer="396" to-port="0" />
		<edge from-layer="396" from-port="1" to-layer="397" to-port="1" />
		<edge from-layer="397" from-port="2" to-layer="400" to-port="0" />
		<edge from-layer="398" from-port="0" to-layer="399" to-port="0" />
		<edge from-layer="399" from-port="1" to-layer="400" to-port="1" />
		<edge from-layer="400" from-port="2" to-layer="402" to-port="0" />
		<edge from-layer="401" from-port="0" to-layer="402" to-port="1" />
		<edge from-layer="402" from-port="2" to-layer="405" to-port="0" />
		<edge from-layer="403" from-port="0" to-layer="404" to-port="0" />
		<edge from-layer="404" from-port="1" to-layer="405" to-port="1" />
		<edge from-layer="405" from-port="2" to-layer="408" to-port="0" />
		<edge from-layer="406" from-port="0" to-layer="407" to-port="0" />
		<edge from-layer="407" from-port="1" to-layer="408" to-port="1" />
		<edge from-layer="408" from-port="2" to-layer="409" to-port="1" />
		<edge from-layer="409" from-port="2" to-layer="412" to-port="0" />
		<edge from-layer="410" from-port="0" to-layer="411" to-port="0" />
		<edge from-layer="411" from-port="1" to-layer="412" to-port="1" />
		<edge from-layer="412" from-port="2" to-layer="413" to-port="0" />
	</edges>
	<rt_info>
		<MO_version value="2024.5.0-17288-7975fa5da0c-refs/pull/3856/head" />
		<Runtime_version value="2024.5.0-17288-7975fa5da0c-refs/pull/3856/head" />
		<conversion_parameters>
			<input_model value="DIR/model.onnx" />
			<input_shape value="[1,60,42,2]" />
			<is_python_api_used value="False" />
			<output_dir value="DIR" />
		</conversion_parameters>
		<legacy_frontend value="False" />
	</rt_info>
</net>
